algo/DQN/trained_model/policy_net_500.pt (torch_old, 1994 bytes, 7 tensors)

linearUp1.weight f4 [4, 25]
-1.330574 -0.3551513 -0.092432015 0.63716495 -0.54103 -5.62212 -0.9793594 0.022332015
0.88803875 1.0648882 -3.8767586 -1.8547754 -1.1160932 3.2539363 4.247765 -3.6860778
-2.5980642 1.069261 0.77037233 1.4218315 0.12235325 7.3988643 7.1210546 6.990016
1.2523658 0.53638 3.1123872 3.772144 2.1226487 0.9957533 4.7833643 6.605222
-1.8197348 -1.0783615 -2.4008808 2.8861165 3.261379 1.6739434 1.5673771 -3.3833597
4.365874 6.0762525 -1.65494 -1.1825567 -4.3246937 -0.19158344 -2.4664268 -3.2205863
-3.1441762 0.5607316 0.3097426 -4.897257 -4.037718 -1.4484236 -0.6021901 -2.674438
-4.90474 3.3297215 5.041011 6.0867896 -4.225636 -3.8812299 -0.9782644 1.0015804
6.6790466 -6.9274836 -0.8716258 4.126529 6.450064 7.4025044 -0.11422217 -6.7690997
-3.6462164 -0.91611034 0.9391752 0.306148 4.1081033 5.473355 4.989077 1.4113979
-3.5323744 5.92407 -3.0072026 0.86640143 -1.0773674 -2.93581 -2.3464444 1.660517
8.634079 1.3735031 -3.3487942 -3.997919 -2.3372715 -0.59749097 -0.48120007 -0.25620627
-2.8320808 -4.835905 -1.5036402 3.095697
00000000: 4050 aabf 64d6 b5be ff4c bdbd 3e1d 233f
00000010: f180 0abf 68e8 b3c0 4cb7 7abf a1f1 b63c
00000020: 8256 633f 424e 883f d01c 78c0 4869 edbf
00000030: 24dc 8ebf 7e40 5040 b1ed 8740 b3e8 6bc0
00000040: af46 26c0 8bdd 883f 1f37 453f 93fe b53f
00000050: 5794 fa3d 7fc3 ec40 aedf e340 36ae df40
00000060: 864d a03f 3350 093f 5a31 4740 cf6a 7140
00000070: 7ad9 0740 b0e9 7e3f 5211 9940 fb5d d340
00000080: 12ed e8bf c007 8abf 08a8 19c0 22b6 3840
00000090: 6fba 5040 c743 d63f d09f c83f f788 58c0
000000a0: 3db5 8b40 a970 c240 13d5 d3bf 055e 97bf
000000b0: e463 8ac0 732e 44be f0d9 1dc0 161e 4ec0
000000c0: 2f3a 49c0 1b8c 0f3f 9596 9e3e 54b6 9cc0
000000d0: fc34 81c0 f265 b9bf 2129 1abf fe29 2bc0
000000e0: a1f3 9cc0 281a 5540 f64f a140 fbc6 c240
000000f0: 6938 87c0 1266 78c0 896f 7abf c933 803f
00000100: c0ba d540 f2ad ddc0 de22 5fbf 870c 8440
00000110: ed66 ce40 51e1 ec40 50ed e9bd 779c d8c0
00000120: 9c5b 69c0 3586 6abf c96d 703f 6ebf 9c3e
00000130: 9575 8340 b925 af40 85a6 9f40 b0a8 b43f
00000140: 6c12 62c0 fb91 bd40 0276 40c0 7ccc 5d3f
00000150: 2de7 89bf 50e4 3bc0 252c 16c0 d28b d43f
00000160: 3025 0a41 f3ce af3f a552 56c0 e8dd 7fc0
00000170: db95 15c0 2bf5 18bf db5f f6be 782d 83be
00000180: d040 35c0 bcbf 9ac0 4877 c0bf e61f 4640

linearLow1.weight f4 [4, 3]
0.9934786 -1.6918377 2.376291 0.26760063 0.055858888 0.26711443 -0.104154654 0.30174893
1.6760572 0.33915696 -2.017057 0.69114643
00000000: 9d54 7e3f 238e d8bf 2715 1840 f302 893e
00000010: 4acc 643d 39c3 883e 094f d5bd d67e 9a3e
00000020: 0b89 d63f fba5 ad3e 7617 01c0 f9ee 303f

linearLow1.bias f4 [4]
-0.10023755 -0.59864765 -0.03493173 1.3355695
00000000: 5849 cdbd f940 19bf 9314 0fbd f1f3 aa3f

linearLow2.weight f4 [4, 4]
0.51446307 0.04361117 -0.32144734 0.47226515 5.534162 -0.37019798 -0.06462518 -7.0809293
-0.48917806 -0.34425676 -0.49838758 -0.07071149 1.1646975 -0.24833205 -2.0887895 -1.0123786
00000000: dab3 033f a0a1 323d bf94 a4be bdcc f13e
00000010: db17 b140 978a bdbe 355a 84bd f996 e2c0
00000020: 8c75 fabe 6c42 b0be a82c ffbe 30d1 90bd
00000030: cf14 953f c24a 7ebe baae 05c0 9f95 81bf

linearLow2.bias f4 [4]
-0.40319106 0.15265748 -0.34158105 1.1432854
00000000: 0f6f cebe 3e52 1c3e b6e3 aebe 2d57 923f

linear_cat.weight f4 [4, 8]
7.21435 -2.762355 -11.386439 -3.3850806 -0.41055167 -2.261843 0.040956944 2.343836
-5.6177244 -10.431526 9.237633 2.1724994 0.20719159 5.1796384 -0.3191828 0.42825142
-9.598771 -3.1682024 -17.790003 8.387153 -0.75350547 -9.257283 -0.038992226 -0.22607248
-14.141844 5.63557 -5.33469 -14.67845 0.79250747 -0.6350586 0.1399953 -2.4445174
00000000: f5db e640 6dca 30c0 db2e 36c1 29a5 58c0
00000010: d433 d2be 09c2 10c0 78c2 273d 6901 1640
00000020: 66c4 b3c0 88e7 26c1 58cd 1341 3b0a 0b40
00000030: 082a 543e 99bf a540 ee6b a3be c543 db3e
00000040: 9194 19c1 d4c3 4ac0 ed51 8ec1 c731 0641
00000050: bce5 40bf d51d 14c1 50b6 1fbd 8b7f 67be
00000060: fe44 62c1 9756 b440 c8b5 aac0 eeda 6ac1
00000070: c5e1 4a3f 3393 22bf ee5a 0f3e f972 1cc0

linear_cat.bias f4 [4]
-0.5043018 -0.038586736 1.2311478 0.5140671
00000000: ec19 01bf 200d 1ebd 4096 9d3f e799 033f
