algo/DQN/trained_model/policy_net_700.pt (torch_old, 1994 bytes, 7 tensors)

linearUp1.weight f4 [4, 25]
-0.51398474 -0.48757866 0.33003667 0.44098872 -0.5361053 -5.4883137 -1.7390362 0.50171924
0.4566269 1.3061634 -4.850562 -1.8892771 -1.6977308 3.4675126 4.6996417 -4.0329804
-3.934796 1.3446611 0.1357527 1.6753047 0.22241056 7.3773665 7.707523 7.023509
1.0648264 0.6963174 3.449111 3.8237686 2.6768286 0.9643113 4.0231752 6.275597
-2.8367803 -1.2815518 -2.1823337 2.9913247 3.640075 2.1134455 2.4266415 -3.8635912
4.9559574 6.283944 -2.1727931 -1.1604007 -5.057861 0.24941814 -2.5346017 -5.2426305
-2.852956 0.7548333 0.018973097 -5.0862994 -4.16339 -1.7051073 -0.6722576 -3.1286497
-6.526836 4.718277 5.5327544 6.034819 -4.5680056 -4.372747 -1.055367 0.99997675
7.4440184 -7.4742675 -0.9603872 4.294638 6.1108265 7.857493 0.31641752 -7.407073
-3.4020672 -1.6354853 0.85833484 0.33847746 5.151071 5.3875265 4.8707056 1.3326622
-3.871056 6.0475016 -3.7500677 0.27731013 -0.7991273 -2.7599378 -3.2824306 2.3936603
9.297202 1.7215966 -3.2473266 -4.190127 -2.4561708 0.12559931 -0.9622917 0.04984363
-2.7192824 -5.136435 -1.0031254 4.0062094
00000000: 8194 03bf e9a3 f9be 91fa a83e 46c9 e13e
00000010: 323e 09bf 44a0 afc0 bd98 debf ac70 003f
00000020: 00cb e93e 5d30 a73f ce37 9bc0 d5d3 f1bf
00000030: 3e4f d9bf baeb 5d40 7763 9640 2d0e 81c0
00000040: b3d3 7bc0 db1d ac3f c102 0b3e 6270 d63f
00000050: 98bf 633e 6313 ec40 07a4 f640 96c0 e040
00000060: 3b4c 883f db41 323f 3cbe 5c40 a0b8 7440
00000070: 2951 2b40 1bdd 763f dabd 8040 b1d1 c840
00000080: cf8d 35c0 e409 a4bf 5bab 0bc0 dd71 3f40
00000090: fdf6 6840 b142 0740 184e 1b40 1445 77c0
000000a0: 3497 9e40 1216 c940 0b0f 0bc0 0388 94bf
000000b0: ffd9 a1c0 7867 7f3e ea36 22c0 a1c3 a7c0
000000c0: d596 36c0 c13c 413f 786d 9b3c f7c2 a2c0
000000d0: 7e3a 85c0 f540 dabf 1319 2cbf cc3b 48c0
000000e0: d7db d0c0 20fc 9640 530c b140 3d1d c140
000000f0: 1a2d 92c0 8bed 8bc0 4416 87bf 7afe 7f3f
00000100: 6635 ee40 332d efc0 efdb 75bf ad6d 8940
00000110: e48b c340 9570 fb40 7a01 a23e be06 edc0
00000120: 78bb 59c0 9557 d1bf d5bb 5b3f eb4c ad3e
00000130: 93d5 a440 9e66 ac40 d2dc 9b40 ad94 aa3f
00000140: 62bf 77c0 2285 c140 1c01 70c0 98fb 8d3e
00000150: 9b93 4cbf d2a2 30c0 5813 52c0 bb31 1940
00000160: 57c1 1441 475d dc3f 33d4 4fc0 8515 86c0
00000170: e731 1dc0 1b9d 003e c058 76bf d628 4c3d
00000180: b908 2ec0 ad5d a4c0 6a66 80bf de32 8040

linearLow1.weight f4 [4, 3]
1.0026652 -1.7232306 2.399312 0.26760063 0.055858888 0.26711443 -0.09841504 0.7217955
1.4262077 0.39105132 -2.1896534 1.0984036
00000000: 5557 803f d292 dcbf 548e 1940 f302 893e
00000010: 4acc 643d 39c3 883e d38d c9bd 97c7 383f
00000020: f98d b63f e137 c83e 4823 0cc0 7d98 8c3f

linearLow1.bias f4 [4]
-0.106096454 -0.59864765 -0.080173045 1.139395
00000000: 1949 d9bd f940 19bf c431 a4bd b2d7 913f

linearLow2.weight f4 [4, 4]
0.43954837 0.04361117 -1.0966451 0.4525737 6.1503186 -0.37019798 -0.047533076 -8.905328
-0.48917806 -0.34425676 -0.49838758 -0.07071149 1.1416224 -0.24833205 -2.2113929 -0.99470925
00000000: 7c0c e13e a0a1 323d de5e 8cbf bdb7 e73e
00000010: 69cf c440 978a bdbe 0bb2 42bd 397c 0ec1
00000020: 8c75 fabe 6c42 b0be a82c ffbe 30d1 90bd
00000030: af20 923f c24a 7ebe 7687 0dc0 44a5 7ebf

linearLow2.bias f4 [4]
-0.221346 0.12705678 -0.34158105 1.1866448
00000000: 87a8 62be 2c1b 023e b6e3 aebe fae3 973f

linear_cat.weight f4 [4, 8]
7.649772 -3.1597767 -12.466809 -3.7883582 -0.5378519 -2.8487384 0.040956944 2.6614296
-6.103739 -11.07861 10.250694 2.7411385 0.041360803 6.1321545 -0.3191828 0.12719308
-10.25426 -3.7080047 -20.109728 8.971853 -0.66419923 -9.070697 -0.038992226 -0.48668945
-15.277179 6.572231 -6.348977 -15.833956 0.868992 -0.0018763896 0.1399953 -2.3752446
00000000: efca f440 c839 4ac0 0d78 47c1 7674 72c0
00000010: aab0 09bf bb51 36c0 78c2 273d dd54 2a40
00000020: d451 c3c0 fd41 31c1 d802 2441 d06e 2f40
00000030: f269 293d 9c3a c440 ee6b a3be e73e 023e
00000040: 7311 24c1 f34f 6dc0 b9e0 a0c1 b68c 0f41
00000050: f608 2abf 9321 11c1 50b6 1fbd 5c2f f9be
00000060: 536f 74c1 b74f d240 d22a cbc0 e257 7dc1
00000070: 4276 5e3f 30f1 f5ba ee5a 0f3e 0204 18c0

linear_cat.bias f4 [4]
-0.27357653 0.047206677 1.2687325 0.60458404
00000000: 3912 8cbe ca5b 413d d465 a23f 05c6 1a3f
