algo/DQN/trained_model/policy_net_400.pt (torch_old, 1994 bytes, 7 tensors)

linearUp1.weight f4 [4, 25]
0	0xbf7bc82e	-0.98352325
1	0xbf1447dd	-0.57922155
2	0xbe1ba3e3	-0.15199237
3	0x3eac8a98	0.3369949
4	0xbeca35a7	-0.39494058
5	0xc0a921a2	-5.2853556
6	0xbf94ed29	-1.1634876
7	0x3d331378	0.04371974
8	0x3ea47137	0.32117626
9	0x3fa706a6	1.3048904
10	0xc07c0037	-3.937513
11	0xbf97c1fa	-1.1856072
12	0xbf5a528f	-0.85282224
13	0x4051a143	3.2754676
14	0x406cde98	3.701086
15	0xc072e54c	-3.7952452
16	0xbfd94095	-1.6972834
17	0x3f3459ed	0.70449716
18	0x3e96a3fd	0.29421988
19	0x3fc0e84f	1.5070895
20	0x3dfe99ee	0.124317035
21	0x40eb4a36	7.352809
22	0x40e3f0e9	7.123158
23	0x40d432b2	6.6311884
24	0x3f9eed2e	1.2416131
25	0x3e9af9b0	0.3026862
26	0x403e7655	2.9759724
27	0x4072c5ad	3.7933152
28	0x40096f57	2.1474206
29	0x3f9bc871	1.2170545
30	0x4098a26e	4.769828
31	0x40cfd1ef	6.4943767
32	0xc0026c80	-2.0378723
33	0xbf1bc546	-0.6084789
34	0xc01221bc	-2.283309
35	0x402a723d	2.6632226
36	0x403cb3e5	2.94848
37	0x3fae3e18	1.36127
38	0x3fa87e7a	1.3163598
39	0xc0451abe	-3.0797572
40	0x40890775	4.2821603
41	0x40b35f19	5.6053586
42	0xbfa6f06e	-1.3042123
43	0xbf7edb23	-0.99553126
44	0xc07f124e	-3.9854922
45	0xbee1b187	-0.44080755
46	0xc0202d04	-2.5027475
47	0xc01d6b86	-2.4596877
48	0xc04c975e	-3.1967387
49	0xbe707a39	-0.23484124
50	0x3e92fbf9	0.28707865
51	0xc094abb4	-4.64596
52	0xc0716778	-3.7719402
53	0xbf97be30	-1.1854916
54	0xbf4f5fb2	-0.81005394
55	0xc0360dd1	-2.8445933
56	0xc0a587bc	-5.172819
57	0x404c7729	3.194773
58	0x409dcbbf	4.9311213
59	0x40c3cf75	6.1190743
60	0xc05c2c59	-3.4402068
61	0xc07fde7a	-3.997954
62	0xbf97b33d	-1.1851574
63	0x3f6047a0	0.8760929
64	0x40c66c1e	6.200698
65	0xc0df75e0	-6.983139
66	0xbffcbefe	-1.9745786
67	0x4045ca6b	3.0904796
68	0x40dde776	6.9345045
69	0x40e20d89	7.0641522
70	0x3cc0e077	0.023544533
71	0xc0ae1d53	-5.4410796
72	0xc063a834	-3.5571413
73	0xbf6415d5	-0.89095813
74	0x3faff22d	1.3745781
75	0x3ebe4efc	0.37169635
76	0x4076a667	3.8539064
77	0x40a2cadf	5.0872645
78	0x409aaa53	4.8332915
79	0x3fd50db8	1.6644812
80	0xc0493171	-3.1436427
81	0x40ca121d	6.314711
82	0xc0359f66	-2.837854
83	0x3f1f7cb4	0.62299657
84	0xbf3d428b	-0.7392966
85	0xc0313095	-2.7685902
86	0xc0124b15	-2.2858326
87	0x3fba0e1e	1.4535558
88	0x40f9fa13	7.8117766
89	0x3fe1b78e	1.7634141
90	0xc0681552	-3.6263013
91	0xc080ab66	-4.0209227
92	0xbfe1b48f	-1.7633227
93	0xbfb19d12	-1.3876059
94	0xbeeedc4f	-0.46652457
95	0xbf1fac05	-0.62371856
96	0xc02b176a	-2.673304
97	0xc08ead20	-4.4586334
98	0xbf9f3ecb	-1.2441038
99	0x403c0c9b	2.9382694

linearLow1.weight f4 [4, 3]
0	0x3f83820d	1.0274063
1	0xbfcdc7a6	-1.6076553
2	0x401628ed	2.346248
3	0x3e8902f3	0.26760063
4	0x3d64cc4a	0.055858888
5	0x3e88c339	0.26711443
6	0x3cf6ac2e	0.030111399
7	0x3eae65ad	0.34061947
8	0x3fdca37d	1.7237393
9	0x3db70214	0.08935943
10	0xc0053787	-2.0815141
11	0x3f3b0afd	0.7306364

linearLow1.bias f4 [4]
0	0xbdd1feb4	-0.10253659
1	0xbf1940f9	-0.59864765
2	0xbd6a07e9	-0.05713645
3	0x3fa1895a	1.2620041

linearLow2.weight f4 [4, 4]
0	0x3f184e5e	0.5949458
1	0x3d32a1a0	0.04361117
2	0xbe14f807	-0.1454774
3	0x3ecf0076	0.4043004
4	0x40a7dc57	5.245647
5	0xbebd8a97	-0.37019798
6	0xbd760209	-0.060060535
7	0xc0cf723b	-6.482694
8	0xbefa758c	-0.48917806
9	0xbeb0426c	-0.34425676
10	0xbeff2ca8	-0.49838758
11	0xbd90d130	-0.07071149
12	0x3f8da177	1.10649
13	0xbe7e4ac2	-0.24833205
14	0xc00ab03e	-2.167007
15	0xbf840a2d	-1.0315605

linearLow2.bias f4 [4]
0	0xbee4395c	-0.44575012
1	0x3ded6049	0.115906306
2	0xbeaee3b6	-0.34158105
3	0x3f9385ec	1.1525245

linear_cat.weight f4 [4, 8]
0	0x40dad257	6.8381763
1	0xc024bad5	-2.5739033
2	0xc1290fcd	-10.566358
3	0xc0385099	-2.8799193
4	0xbee9c1c3	-0.4565564
5	0xc027fd7c	-2.6248465
6	0x3d27c278	0.040956944
7	0x4028e596	2.6390128
8	0xc0ac0c73	-5.3765197
9	0xc11ef900	-9.935791
10	0x410b1d2a	8.69462
11	0x3ff30e79	1.8988792
12	0x3d2df361	0.042468432
13	0x40b9eaff	5.809936
14	0xbea36bee	-0.3191828
15	0x3ef42f19	0.47692183
16	0xc10f2564	-8.946629
17	0xc03fb406	-2.9953628
18	0xc18517d2	-16.636631
19	0x40fd4af7	7.915401
20	0xbf30adb8	-0.69015074
21	0xc101c29f	-8.110015
22	0xbd1fb650	-0.038992226
23	0xbe61535e	-0.22004458
24	0xc1536c37	-13.21392
25	0x40a6479e	5.1962423
26	0xc09eb955	-4.9601235
27	0xc15a849e	-13.657377
28	0x3f3cac74	0.7370064
29	0xbfa4af71	-1.286604
30	0x3e0f5aee	0.1399953
31	0xc00ab5b2	-2.1673398

linear_cat.bias f4 [4]
0	0xbef1997b	-0.4718741
1	0x3d62c6a5	0.055365223
2	0x3f932a6b	1.149732
3	0x3f035242	0.5129739
