algo/DQN/trained_model/policy_net_800.pt (torch_old, 1994 bytes, 7 tensors)

linearUp1.weight f4 [4, 25]
000000 82 fd 4f bf c4 37 6a be 83 34 e9 3e 4f 11 79 3e
       -0.812462 -0.22872835 0.45547876 0.24323009
000010 bd 7b f1 be 4e 1c b3 c0 a5 bf e5 bf ba aa b0 3e
       -0.47164717 -5.597205 -1.794911 0.34505254
000020 12 a5 3d 3f 26 63 ae 3f 83 a6 9e c0 43 80 02 c0
       0.7408 1.3624008 -4.957826 -2.0390785
000030 03 57 bf bf 41 98 3d 40 78 92 96 40 36 27 85 c0
       -1.4948429 2.9624178 4.7053795 -4.1610365
000040 4a b0 9d c0 46 76 9c 3f 0d ec 93 3f 77 52 f1 3f
       -4.9277697 1.2223594 1.1556412 1.8853291
000050 ec 04 07 3c 62 12 fa 40 f1 68 01 41 be 1e f2 40
       0.00824092 7.814744 8.08812 7.5662527
000060 cd 7f aa 3f 48 e7 6d 3f 02 89 6d 40 50 64 61 40
       1.3320252 0.9293103 3.7114873 3.5217476
000070 4a 57 2d 40 a5 3b 4a 3f 4a 6c 7c 40 41 56 d0 40
       2.7084527 0.7899726 3.9441094 6.510529
000080 ab 98 37 c0 40 df b0 bf 56 2c 09 c0 58 92 5f 40
       -2.868693 -1.381813 -2.143331 3.493307
000090 ee 8e 64 40 f5 50 0e 40 eb 38 0e 40 67 39 6d c0
       3.5712237 2.2236912 2.222224 -3.7066286
0000a0 28 70 ae 40 1c b0 d1 40 cb 6a 1e c0 2c f1 ba bf
       5.451191 6.5527477 -2.4752681 -1.460485
0000b0 a3 ab 9c c0 ed 9d 9a 3d 8d 9a 47 c0 f8 90 ad c0
       -4.8959517 0.07549653 -3.118808 -5.4239464
0000c0 79 3f 4f c0 4d 75 33 3f d3 62 78 3e fe 47 aa c0
       -3.238249 0.7010086 0.24256448 -5.321288
0000d0 e3 96 91 c0 27 89 d8 bf b4 c1 b6 be 2d 46 4a c0
       -4.549669 -1.6916856 -0.3569466 -3.1605332
0000e0 ce ea cf c0 7e 39 9f 40 89 35 b0 40 70 ad c6 40
       -6.4974127 4.975768 5.506535 6.2086716
0000f0 b2 c1 96 c0 8f bf 8f c0 11 1e 43 bf b9 9f 80 3f
       -4.7111444 -4.4921336 -0.7621775 1.0048743
000100 e2 be f2 40 80 b6 f0 c0 ef 1a 82 bf d9 26 8d 40
       7.585801 -7.522278 -1.016447 4.410992
000110 3a 69 c4 40 91 5e 01 41 88 26 64 3d 64 dc da c0
       6.137845 8.0855875 0.05570081 -6.839403
000120 a0 db 57 c0 1c 8d d9 bf 53 46 88 3f 8b 26 c8 3e
       -3.3727798 -1.6996188 1.0646461 0.39091906
000130 41 d6 a3 40 71 85 b1 40 46 98 a8 40 82 71 c6 3f
       5.119904 5.547539 5.268588 1.550339
000140 a8 06 7b c0 b8 84 cd 40 9a 38 50 c0 69 0d 23 be
       -3.9222813 6.422451 -3.2534547 -0.15923084
000150 6c 92 7b bf 3e 78 2d c0 c6 6c 57 c0 58 3b 23 40
       -0.982703 -2.710464 -3.366014 2.550497
000160 9d df 0b 41 11 18 0f 40 e1 49 71 c0 f4 a8 83 c0
       8.742093 2.235844 -3.7701342 -4.114374
000170 2a 39 15 c0 70 77 3f 3f d0 86 73 bf 7a b9 e1 3d
       -2.331614 0.7479162 -0.9512758 0.11021705
000180 1a 8b 36 c0 2e 38 b1 c0 7c 9f ce bf f8 54 8c 40
       -2.85224 -5.538108 -1.6142421 4.385372

linearLow1.weight f4 [4, 3]
000000 20 72 8d 3f 71 21 dd bf 60 be 1d 40 f3 02 89 3e
       1.1050453 -1.727583 2.4647446 0.26760063
000010 4a cc 64 3d 39 c3 88 3e 56 f4 9f be 62 84 36 3f
       0.055858888 0.26711443 -0.312411 0.7129575
000020 38 a7 cd 3f d9 59 ca 3d db 53 03 c0 26 38 c0 3f
       1.6066656 0.09880418 -2.0519931 1.5017135

linearLow1.bias f4 [4]
000000 9d 81 e7 bd f9 40 19 bf 69 67 cd bd db 02 a2 3f
       -0.11304019 -0.59864765 -0.100294895 1.2657121

linearLow2.weight f4 [4, 4]
000000 7f 14 0d 3f a0 a1 32 3d ab 8e fc bf ce 85 ec 3e
       0.551094 0.04361117 -1.9731039 0.46195835
000010 9f 17 dc 40 97 8a bd be 02 6f 6c bd 81 ba 11 c1
       6.8778834 -0.37019798 -0.057723053 -9.108033
000020 8c 75 fa be 6c 42 b0 be a8 2c ff be 30 d1 90 bd
       -0.48917806 -0.34425676 -0.49838758 -0.07071149
000030 88 44 92 3f c2 4a 7e be a3 d1 04 c0 fe 3b 84 bf
       1.1427164 -0.24833205 -2.0752952 -1.0330808

linearLow2.bias f4 [4]
000000 d5 b5 8c bd 47 38 0b 3e b6 e3 ae be 63 8b 6f 3f
       -0.06870619 0.13595687 -0.34158105 0.9357206

linear_cat.weight f4 [4, 8]
000000 bb 02 04 41 44 dd 62 c0 bf a4 51 c1 8b 0e 82 c0
       8.250667 -3.544755 -13.102721 -4.0642753
000010 0d e8 e6 be 93 57 e3 bf 78 c2 27 3d 85 ad 19 40
       -0.45098916 -1.77611 0.040956944 2.4012158
000020 f8 05 d4 c0 8a 61 35 c1 fc 76 2d 41 e0 70 35 40
       -6.6257286 -11.336313 10.841549 2.8350143
000030 fb e6 26 3e 84 f4 e1 40 ee 6b a3 be d1 97 92 bc
       0.1629905 7.061098 -0.3191828 -0.017894657
000040 13 7a 2c c1 e1 40 80 c0 3f 36 a9 c1 47 f7 16 41
       -10.779803 -4.00792 -21.151487 9.43537
000050 57 03 45 bf d9 8c 14 c1 50 b6 1f bd 4c 8a 37 bc
       -0.7695822 -9.284387 -0.038992226 -0.011202406
000060 f2 55 7a c1 7a 75 e0 40 3d 30 dc c0 f9 af 83 c1
       -15.645983 7.0143404 -6.8808885 -16.460924
000070 62 20 6f 3f 34 50 78 3f ee 5a 0f 3e ce 98 23 c0
       0.9340879 0.9699738 0.1399953 -2.5562015

linear_cat.bias f4 [4]
000000 6a 2e d1 bd 3a 47 b6 bb be 19 b0 3f b2 91 34 3e
       -0.10213931 -0.00556269 1.3757856 0.17633703
