algo/DQN/trained_model/policy_net_1200.pt (torch_old, 1994 bytes, 7 tensors)

linearUp1.weight f4 [4, 25]
000000 fc 37 08 bf 93 41 26 bf 95 07 4c 3d 3d 50 b2 3d
       -0.53210425 -0.6494381 0.04981192 0.087067105
000010 09 6b f1 be 80 61 de c0 9d 0d 1b c0 c0 a3 33 3f
       -0.47151974 -6.949402 -2.422706 0.7017174
000020 ee da 05 bf e0 fb ba 3f 05 6d b0 c0 fe 24 2c c0
       -0.52287185 1.4608116 -5.513308 -2.6897578
000030 67 64 d0 bf 24 fd f8 3f be 71 b8 40 2e 3f 91 c0
       -1.628064 1.9452252 5.7638845 -4.5389624
000040 3f 98 7e c0 11 a6 8a 3f 6e b6 07 40 4b 43 f8 3f
       -3.9780424 1.083193 2.1205096 1.9395536
000050 6f d4 5f be d7 9b 05 41 14 85 0e 41 fd 0a 0a 41
       -0.2185838 8.350547 8.90749 8.627683
000060 ff 90 45 40 e3 0b e1 3e e9 e7 7f 40 0d fc 78 40
       3.0869749 0.4395438 3.9985297 3.890384
000070 57 f7 53 40 cd b4 8e 3f e8 c6 88 40 c1 ed dd 40
       3.3119714 1.1148926 4.2742805 6.9352727
000080 9f b6 31 c0 88 7f 29 bf 3c 72 1d c0 a4 88 87 40
       -2.7767713 -0.6621022 -2.4600973 4.23543
000090 d9 70 6b 40 68 ec 28 40 2b 47 44 40 ee fb 83 c0
       3.6787627 2.639429 3.0668437 -4.124503
0000a0 a0 22 af 40 da 16 e6 40 3e 42 17 c0 8e 16 06 c0
       5.4729767 7.1902895 -2.363418 -2.0951266
0000b0 d9 70 7c c0 d9 0e 13 3e 2d 0d 84 c0 7c 7f ee c0
       -3.9443877 0.14361133 -4.1266084 -7.453062
0000c0 98 5e 6a c0 76 cb b9 bf 96 37 2d 3e 9d 2c bf c0
       -3.6620235 -1.4515216 0.16915736 -5.974196
0000d0 a6 c6 a8 c0 4b c4 06 c0 c2 0b 2a 3e 87 b6 4c c0
       -5.274249 -2.1057308 0.16606048 -3.1986406
0000e0 0f fb 03 c1 ef cd aa 40 45 bd b5 40 9c 6d ce 40
       -8.248794 5.3376384 5.679354 6.45088
0000f0 3c f1 9a c0 b7 3b 97 c0 6e 93 78 bf 93 85 84 3f
       -4.8419476 -4.7260394 -0.9709996 1.0353264
000100 9e 0f 0c 41 7b 46 07 c1 bd 2d 2f 3e b5 cc af 40
       8.753813 -8.454707 0.17107292 5.4937387
000110 e9 13 e9 40 a3 70 11 41 78 c3 0e 3e 13 33 ef c0
       7.2836804 9.089999 0.13941753 -7.4749846
000120 4c ef 53 c0 c3 24 f1 bf 7d 88 7d 3f 39 17 f5 bd
       -3.3114805 -1.8839344 0.9903639 -0.1196732
000130 44 a1 bd 40 c8 32 c2 40 bc 43 ae 40 06 82 dd 3f
       5.9259357 6.068699 5.4457684 1.7305305
000140 9a 79 8f c0 07 82 d6 40 08 a8 34 c0 2a 00 09 40
       -4.483594 6.7033725 -2.8227558 2.140635
000150 f4 bc 55 bf f9 4b 33 c0 7d d7 6d c0 fa bb 4b 40
       -0.83491445 -2.801512 -3.7162774 3.1833482
000160 98 e4 10 41 bb 1c 2a 40 40 2d 86 c0 1b 51 87 c0
       9.055809 2.6580036 -4.1930237 -4.2286506
000170 81 3e 9d bf dd 5f 10 40 77 d3 e9 3d 32 64 9d 3e
       -1.22847 2.255851 0.11417287 0.30740505
000180 6f 32 51 c0 5a 8d e4 c0 cc ab e3 bf cd 84 7a 40
       -3.2687032 -7.142255 -1.7786803 3.9143555

linearLow1.weight f4 [4, 3]
000000 70 e8 6f 3f 0d 8a e6 bf b2 54 21 40 f3 02 89 3e
       0.93714046 -1.801088 2.5207944 0.26760063
000010 4a cc 64 3d 39 c3 88 3e 65 c4 c4 be b5 99 6f 3f
       0.055858888 0.26711443 -0.38431087 0.93593913
000020 ec e8 b1 3f 34 15 9e 3c f7 85 0c c0 90 6f c2 3f
       1.3899207 0.01929722 -2.1956766 1.5190296

linearLow1.bias f4 [4]
000000 d8 9d 80 be f9 40 19 bf 79 ce ac be 70 7d a1 3f
       -0.25120425 -0.59864765 -0.33751276 1.2616405

linearLow2.weight f4 [4, 4]
000000 25 4c 60 3e a0 a1 32 3d 78 ba 84 c0 31 bc a3 3e
       0.21904047 0.04361117 -4.1477623 0.31979516
000010 f5 a8 ea 40 97 8a bd be a9 8e bb bd 0f d1 17 c1
       7.3331246 -0.37019798 -0.0915807 -9.48854
000020 8c 75 fa be 6c 42 b0 be a8 2c ff be 30 d1 90 bd
       -0.48917806 -0.34425676 -0.49838758 -0.07071149
000030 dc 37 8e 3f c2 4a 7e be f2 52 2e c0 bb 06 8d bf
       1.1110797 -0.24833205 -2.7238126 -1.1017679

linearLow2.bias f4 [4]
000000 da 0b a1 3e b1 24 22 3e b6 e3 ae be ce 58 8f 3f
       0.31454355 0.15834309 -0.34158105 1.1198976

linear_cat.weight f4 [4, 8]
000000 75 c2 15 41 90 fc 8e c0 8a d9 74 c1 4f 97 90 c0
       9.359975 -4.4683304 -15.30311 -4.5184703
000010 d0 70 82 be 34 38 98 bf 78 c2 27 3d 59 43 4d 40
       -0.25476694 -1.1892152 0.040956944 3.2072356
000020 9a 27 00 c1 b6 f0 52 c1 e6 a9 55 41 d3 b9 3d 40
       -8.009668 -13.183767 13.353979 2.9644668
000030 cb 46 37 3e 96 b6 0d 41 ee 6b a3 be 5c 4c 6d be
       0.17898099 8.857077 -0.3191828 -0.2317366
000040 27 8a 52 c1 51 f5 8f c0 75 44 c2 c1 77 72 28 41
       -13.158729 -4.498696 -24.283426 10.5279455
000050 80 27 41 bf 9a d3 fd c0 50 b6 1f bd 05 b3 9e bf
       -0.754509 -7.9320803 -0.038992226 -1.2398382
000060 c0 83 8c c1 dd 6a 02 41 93 ce 02 c1 88 6e 99 c1
       -17.564331 8.15109 -8.175433 -19.17897
000070 d6 d2 8e 3f 7a 7f 8f 3f ee 5a 0f 3e 6e 8e 34 c0
       1.1158092 1.1210778 0.1399953 -2.8211932

linear_cat.bias f4 [4]
000000 c1 6d f2 be b0 67 21 be 7f 77 93 3f 15 20 f4 3e
       -0.4734936 -0.1576221 1.1520842 0.47680727
