algo/DQN/trained_model_0501/policy_net_3200.pt (torch_old, 2348 bytes, 9 tensors)

linear1.weight f4 [4, 25]
000000 74 26 34 c0 9a 78 70 c0 f0 25 65 c0 30 ba 19 be
       -2.814847 -3.757361 -3.5804405 -0.15012431
000010 5c a6 ba 3e ce cc a7 bf 00 bd 94 bf 6f 57 4b bf
       0.36455047 -1.3109376 -1.1620178 -0.7943029
000020 30 2d 2e 3d 20 f9 ef be 69 f4 37 c0 47 90 6f 3e
       0.042523563 -0.46869755 -2.8742926 0.23394881
000030 e9 d0 50 3e 20 16 21 be 68 23 5b c0 4e 1d 96 bf
       0.20392193 -0.15731096 -3.424036 -1.1727693
000040 ae 81 f7 3f a2 5a 35 3e e0 d6 15 bf 2f 5b 3b c0
       1.933645 0.17710355 -0.58531 -2.9274404
000050 bd 88 85 bd 34 25 04 41 14 95 75 40 11 5d 66 40
       -0.065202214 8.259083 3.837224 3.5994303
000060 71 d7 df bf 56 3c 0f 40 3e 0d 36 bf 21 77 ee be
       -1.7487622 2.2380576 -0.71113956 -0.46575263
000070 b6 3a a8 be bd 98 68 bd b3 3c 8d 40 60 aa a1 bd
       -0.32857293 -0.056786288 4.4136596 -0.078938246
000080 1f 61 44 be f1 57 0e bf 5b 8d 8a bf 56 14 94 40
       -0.19177674 -0.5560294 -1.0824388 4.6274824
000090 4f b5 80 3e 5c ad 7d 3c 90 54 1f be 15 ff 21 c0
       0.25138327 0.015483227 -0.15559602 -2.531194
0000a0 58 da 8f 40 f3 34 c8 3e 53 b6 f4 bd 71 70 f9 bf
       4.4954033 0.39102897 -0.11948838 -1.9487439
0000b0 ed 42 7d bf b9 8c b0 3d fa 94 0a 41 b9 56 76 3f
       -0.98930246 0.08620591 8.661371 0.9622608
0000c0 94 64 f6 3f 7a 5d 2a bf 47 8f 42 3f 5a 68 b1 bd
       1.9249444 -0.66548884 0.75999874 -0.086624816
0000d0 10 45 b8 c0 b0 15 da be 76 81 5c 3e 9d c3 a4 40
       -5.7584305 -0.4259467 0.2153376 5.1488786
0000e0 6b 19 c9 bf b8 bd 8a bf 9f 01 9a bf 8a fd 20 c0
       -1.5710882 -1.0839148 -1.2031745 -2.5154748
0000f0 e0 7c bb 40 4a 7f d1 3b 85 68 7b bf e7 0f 2e bf
       5.8589935 0.006393348 -0.9820636 -0.67993015
000100 33 22 64 c0 ec ff c6 40 f9 81 73 3e 40 19 3b bf
       -3.5645874 6.2187405 0.2378005 -0.73085403
000110 45 3e 19 c0 e6 a7 a6 bf e0 e9 26 3f f3 0d e8 bf
       -2.3944256 -1.3019989 0.65200615 -1.8129257
000120 3e 21 4b c0 75 d3 1c bf e4 ef 6e 3e cb ea 81 bf
       -3.173904 -0.6126016 0.23333699 -1.0149778
000130 b2 f8 a9 40 fb 47 92 40 8c 64 7a 40 c1 d5 fe bd
       5.3116083 4.5712867 3.912387 -0.12443114
000140 45 07 c7 c0 65 4e 91 40 07 f1 c5 3e ab 57 1e 40
       -6.2196374 4.5408196 0.38660452 2.4741008
000150 fa 48 89 c0 10 13 02 c1 bf e2 93 40 65 8f fb bf
       -4.2901583 -8.129654 4.621429 -1.9653136
000160 09 a5 f0 be 65 1f ba bf a0 8d 84 c0 aa e5 89 c0
       -0.47000912 -1.4540831 -4.142288 -4.309285
000170 e9 e2 46 bf 38 c8 a1 c0 bd 4b 85 c0 34 7c a6 be
       -0.7768999 -5.055691 -4.1654954 -0.32516634
000180 02 9f ca bf c8 fc 63 c0 c3 09 97 c0 7d 5e 7d 3f
       -1.5829775 -3.5623035 -4.7199416 0.989723

linearLow1.weight f4 [5, 3]
000000 33 13 0d 40 17 8f a7 3e 6e 0b 4b c0 fc 6f b8 40
       2.2042968 0.32726356 -3.1725726 5.76367
000010 e2 55 82 3e 7b 8d d4 3f b1 96 4b 3f 61 e8 d8 3f
       0.25456148 1.6605676 0.7952681 1.6945916
000020 4c 8e 80 40 73 d6 a4 3f 9f 9d 0e c0 fb 46 8c 40
       4.01737 1.2877945 -2.2283704 4.3836646
000030 34 fc 22 3b d0 6a 02 bf 9a 19 08 3c
       0.0024869563 -0.5094423 0.008306885

linearLow1.bias f4 [5]
000000 04 01 e3 3f 52 e6 12 bf 7b b6 49 3f 59 0f 27 3f
       1.7734685 -0.5738269 0.7879407 0.65257794
000010 2d b6 05 bf
       -0.52231103

linearLow2.weight f4 [4, 5]
000000 a0 fb f2 3c b5 f6 94 be ce 82 2d be 9a d0 a6 be
       0.029661 -0.29094473 -0.1694443 -0.32581025
000010 7a 04 e0 be d7 83 f4 bf 53 85 71 c0 15 25 32 40
       -0.43753415 -1.9102734 -3.7737625 2.7835133
000020 76 96 cb 3f de 14 80 be c0 26 cd c0 c9 e9 ed c0
       1.5905292 -0.2501592 -6.41098 -7.434788
000030 94 9f 1a bf a6 be 4d 40 19 24 93 be 1f 14 65 c0
       -0.60399747 3.2147613 -0.28738478 -3.579353
000040 40 bf dd 3f 2d 9c 43 40 f7 93 f6 3f 2c 9f 84 3d
       1.732399 3.0564072 1.9263905 0.06475672

linearLow2.bias f4 [4]
000000 40 a8 5f bc fc f9 7f 3f be a9 b5 3f 6b 10 80 3f
       -0.013650954 0.9999082 1.4192426 1.000501

linearLow3.weight f4 [4, 4]
000000 40 2a 86 3d 6c f6 13 40 36 1a 27 c1 31 0f 1e 40
       0.06551027 2.3119154 -10.443899 2.4696772
000010 ec 6f c6 be ce bb 59 3f 4b ca d9 bf 94 19 76 40
       -0.38757265 0.8505219 -1.701486 3.8453112
000020 18 10 97 be d4 61 41 40 cf 48 6a 40 d5 69 a2 3e
       -0.29504466 3.021596 3.660694 0.31721368
000030 c0 6f 62 bd 00 ae d0 bc 00 de 61 bd ca 5f e4 be
       -0.055282354 -0.025473595 -0.055143356 -0.4460433

linearLow3.bias f4 [4]
000000 db 7f fe 3e c9 ec bd 3f 87 05 8b c0 f0 de 9e be
       0.4970692 1.4837886 -4.3444247 -0.31029463

linear3.weight f4 [4, 8]
000000 42 f7 40 41 a7 b1 9c 40 84 57 42 c1 51 1c d4 c1
       12.060366 4.896686 -12.146366 -26.513826
000010 85 40 6f 3f c0 a6 4f 3f bd e5 83 c0 88 41 50 be
       0.93457824 0.81113815 -4.121794 -0.20337498
000020 5f d9 cb c1 8d f1 3a c1 1a 7f b3 3a 32 9c be c0
       -25.481138 -11.683972 0.0013694495 -5.956567
000030 6a fb 27 40 68 39 d7 bf ac 82 28 3f fa b9 78 3e
       2.62472 -1.6814394 0.6582439 0.24289694
000040 8e 73 16 bf 11 b1 44 c0 ce fa 89 c1 86 ce 82 41
       -0.5877007 -3.0733073 -17.247463 16.350842
000050 5c 5d 77 c0 71 ab 05 40 cc d9 3e bf 14 3f e1 3d
       -3.8650732 2.088589 -0.7455108 0.10998359
000060 19 46 ad c0 a5 59 26 40 ca b2 37 41 8a 39 af c1
       -5.414807 2.5992215 11.48115 -21.903095
000070 2e 47 20 3f e1 05 24 c0 a9 c4 e0 3f 1f da 63 be
       0.6260861 -2.5628588 1.7560016 -0.22251175

linear3.bias f4 [4]
000000 00 fa 65 40 b5 a8 34 c1 03 fe f1 c0 ac e7 6d c0
       3.5933838 -11.291188 -7.5622573 -3.7172651
