algo/DQN/trained_model_0501/policy_net_5400.pt (torch_old, 2348 bytes, 9 tensors)

linear1.weight f4 [4, 25]
00000000: a6c9 33c0 c695 c7c0 94eb b0c0 1194 82bf
00000010: ab70 283f 6670 03c0 f95f bcbf f5a7 31be
00000020: e5e3 44bf 815e bcbf eb13 39c0 3c5e a83e
00000030: f3a1 39be 6b18 6fbf d94b 5ec0 21d2 9dbf
00000040: d0ef 1d40 4d42 923d 10b4 f93b 67df 1ac0
00000050: 46f3 863d ca4b 2341 4a19 8740 ecdf a140
00000060: ffcc 28c0 758f 1440 8c84 73bd 4315 c7be
00000070: 2b22 96be c1a9 a63d 5522 a940 befa 1bbe
00000080: f63d 72be a2d3 02be 9e27 11bf 780d b140
00000090: bcba cf3d 4fdf f7bd 55f3 1a3f a031 f2bf
000000a0: a85b ac40 7ec2 293f 150a 7ebe ac46 6ebf
000000b0: c3a9 3cbf 6fe8 15bd fe20 2041 1342 0040
000000c0: 11dc f13f 174d bdbf c2da 043f a542 1cbe
000000d0: b6d9 cfc0 f387 adbd 6947 763e 6d74 c740
000000e0: 0c93 f3bf 4675 e8bf c650 2cc0 ffbe 29c0
000000f0: 13fa d940 1137 e7be 8d45 87bf 1842 3bbf
00000100: 7489 8ec0 0396 d540 ac88 9d3e cd7f 66bf
00000110: ba64 24c0 6e8b 72bf 85a6 b83f e20f c13d
00000120: 936b 80c0 1e2a 4dbe 35e1 9fbd e9ec acbe
00000130: 9dee a240 88b1 8c40 3dde 8740 3a4c 0b3e
00000140: 19b6 d3c0 149c b040 bc69 aa3d 961d e03f
00000150: d86e a1c0 0c18 25c1 2dfd b640 0709 a3c0
00000160: e86a 48c0 5ea5 27c0 addd afc0 5a58 b0c0
00000170: 3752 2ac0 82d3 d1c0 4139 adc0 344e 023f
00000180: 249e 6cbf 82fc 88c0 c4ca 88c0 2e93 683f
-2.8091826 -6.237033 -5.528757 -1.0201436 0.6579692 -2.0537353 -1.4716789 -0.17349227
-0.7691024 -1.471634 -2.8918407 0.32884395 -0.18128185 -0.93396634 -3.4733794 -1.2329751
2.467762 0.07141552 0.007620342 -2.4198854 0.065893695 10.206003 4.221837 5.058584
-2.637512 2.321256 -0.05945258 -0.3888341 -0.29322943 0.08137847 5.285441 -0.1523237
-0.23656449 -0.12776044 -0.56701076 5.532894 0.10143039 -0.121031396 0.60527545 -1.8921394
5.3861885 0.66312397 -0.24808533 -0.93076587 -0.73696536 -0.03659862 10.008055 2.0040329
1.8895284 -1.4789151 0.518963 -0.15259798 -6.495326 -0.08473196 0.24050678 6.232962
-1.902925 -1.8160789 -2.69243 -2.6522825 6.8117766 -0.451592 -1.05681 -0.73147726
-4.454279 6.674562 0.30768335 -0.9003876 -2.5686479 -0.94744 1.4425818 0.094268575
-4.0131316 -0.20035598 -0.07806627 -0.33774498 5.0916276 4.3966713 4.2458787 0.13603297
-6.6159787 5.5190525 0.083209485 1.7509029 -5.0447807 -10.318371 5.7184052 -5.094852
-3.131525 -2.6194682 -5.49581 -5.510785 -2.661268 -6.557069 -5.413239 0.5090058
-0.92428803 -4.2808237 -4.2747517 0.9084958

linearLow1.weight f4 [5, 3]
00000000: 5d5a 2940 2560 213f 7550 20c0 2fa5 bb40
00000010: f9cb b03e 8f75 0740 2792 3d3f ad18 ec3f
00000020: 8f1b 9640 0466 e63f ff5f ebbf 6dca 9940
00000030: 34fc 223b d06a 02bf 9a19 083c
2.6461403 0.6303733 -2.5049107 5.863914 0.3453062 2.1165502 0.74051136 1.844503
4.690864 1.7999883 -1.8388671 4.80596 0.0024869563 -0.5094423 0.008306885

linearLow1.bias f4 [5]
00000000: 23c3 f03f 38b2 3ebf 57b6 343f 32af 733f
00000010: 2db6 05bf
1.8809551 -0.7449069 0.7059073 0.951892 -0.52231103

linearLow2.weight f4 [4, 5]
00000000: a0fb f23c b5f6 94be ce82 2dbe 9ad0 a6be
00000010: 7a04 e0be cc01 8ebf 731d 89c0 89b6 4240
00000020: f5c8 d23f de14 80be 671a fcc0 f144 16c1
00000030: 86d5 1cbf 8196 7740 1924 93be 0539 38c0
00000040: a3cd e53f ff30 6840 e86a e03f 2c9f 843d
0.029661 -0.29094473 -0.1694443 -0.32581025 -0.43753415 -1.1094298 -4.284845 3.042391
1.6467577 -0.2501592 -7.878223 -9.391831 -0.6126331 3.868561 -0.28738478 -2.8784802
1.795338 3.6279905 1.7532625 0.06475672

linearLow2.bias f4 [4]
00000000: 40a8 5fbc fde2 153f 8bb5 e93f 2ee7 913f
-0.013650954 0.5854948 1.8258528 1.1398675

linearLow3.weight f4 [4, 4]
00000000: 402a 863d e7be 2740 1d1c 23c1 a384 3d40
00000010: ec6f c6be ec07 583f 7a90 e8bf a077 7340
00000020: 1810 97be 1b29 5140 492d 7e40 ca9f 893e
00000030: c06f 62bd 00ae d0bc 00de 61bd ca5f e4be
0.06551027 2.6210268 -10.194364 2.9612205 -0.38757265 0.8438709 -1.8169091 3.8041763
-0.29504466 3.2681339 3.971514 0.26879722 -0.055282354 -0.025473595 -0.055143356 -0.4460433

linearLow3.bias f4 [4]
00000000: d223 973f 0682 d23f e9c8 9bc0 f0de 9ebe
1.1807806 1.644593 -4.868275 -0.31029463

linear3.weight f4 [4, 8]
00000000: 66e2 8041 8c7e 9340 8ca5 32c1 59a3 00c2
00000010: 7cf1 7c3f a2ad 3b3f b89e 8bc0 8841 50be
00000020: 686a 07c2 db0a 15c1 2b01 e73e b757 f5c0
00000030: a55a 3c40 36dd 12c0 8d66 e13e fab9 783e
00000040: a15f d0bf 50ff 5dc0 bb20 b6c1 a228 7341
00000050: 20c8 58c0 97cc 1140 0d34 0ebf 143f e13d
00000060: 7ba6 ddc0 2fd0 1f40 e626 5a41 d877 f0c1
00000070: a67e 72be b086 2dc0 cc8d d43f 1fda 63be
16.110546 4.6091976 -11.165417 -32.15952 0.98805976 0.7331182 -4.363125 -0.20337498
-33.853912 -9.31515 0.4511808 -7.6669574 2.9430325 -2.2947516 0.44023553 0.24289694
-1.6279184 -3.468708 -22.765982 15.19742 -3.3872147 2.2781122 -0.55548173 0.10998359
-6.9265723 2.4970815 13.634497 -30.058517 -0.23681125 -2.7113457 1.6605773 -0.22251175

linear3.bias f4 [4]
00000000: 543b 5740 16fb 31c1 a028 dac0 0f46 80c0
3.362996 -11.1238 -6.817459 -4.008552
