algo/DQN/trained_model_0501/policy_net_5200.pt (torch_old, 2348 bytes, 9 tensors)

linear1.weight f4 [4, 25]
-2.9062486 -5.9884586 -4.9764185 -0.61227876 0.38235807 -1.9326562 -1.3570992 -0.068446666
-0.83707494 -1.5969454 -2.2444398 0.22449818 0.082893215 -0.58622605 -3.5618193 -1.1626656
2.31158 -0.42908853 0.19011271 -2.6218026 -0.034061957 10.209074 4.1558037 4.9044485
-2.699408 2.52394 -0.31509343 -0.42550212 -0.0553494 0.03988601 5.4207764 0.0018833014
0.013754816 -0.043575175 -0.67745775 5.4886007 0.23436168 -0.0824323 -0.11139687 -2.177988
5.47027 1.2469409 -0.23383543 -0.7279299 -0.7872253 -0.08116233 9.522855 1.9000387
2.1213665 -1.446285 0.49309388 -0.16897325 -6.509588 -0.17397554 0.39351392 6.6091356
-1.3828808 -1.1768571 -2.720082 -2.8656309 6.5407977 -0.04843035 -1.2953111 -0.42874703
-4.4054437 6.752594 0.44542518 -0.6983887 -2.3885021 -1.0804983 1.2040595 -0.026097134
-3.9023726 -0.110836074 0.14230038 -0.6667173 5.4749 4.201527 4.2570972 -0.07315841
-6.6728864 5.2779326 0.3948842 2.1113439 -4.885792 -10.00628 5.9546967 -4.6884956
-2.605436 -2.5237577 -5.4426174 -5.229733 -2.4102592 -6.6632395 -5.091527 1.0680667
-0.7472929 -4.0319853 -4.531852 1.0993379
00000000: faff 39c0 74a1 bfc0 d23e 9fc0 4dbe 1cbf
00000010: 70c4 c33e 4761 f7bf 6db5 adbf c42d 8cbd
00000020: 8b4a 56bf b568 ccbf e7a4 0fc0 dae2 653e
00000030: ebc3 a93d e912 16bf d9f4 63c0 3ad2 94bf
00000040: edf0 1340 7eb1 dbbe e8ac 423e 9dcb 27c0
00000050: 8d84 0bbd 5e58 2341 58fc 8440 3ef1 9c40
00000060: 1ac3 2cc0 3c88 2140 ed53 a1be 6adb d9be
00000070: 0db6 62bd 835f 233d 0077 ad40 1cd9 f63a
00000080: e15b 613c e27b 32bd df6d 2dbf 9ea2 af40
00000090: 82fc 6f3e 44d2 a8bd 0b24 e4bd 2864 0bc0
000000a0: 740c af40 c29b 9f3f 8e72 6fbe 9d59 3abf
000000b0: 9987 49bf 7038 a6bd 9d5d 1841 7834 f33f
000000c0: 78c4 0740 de1f b9bf cd76 fc3e 5307 2dbe
000000d0: 8b4e d0c0 a526 32be a87a c93e 0a7e d340
000000e0: 3d02 b1bf 41a3 96bf d315 2ec0 7f66 37c0
000000f0: 374e d140 e75e 46bd c1cc a5bf bb84 dbbe
00000100: 65f9 8cc0 4015 d840 c50e e43e 9ac9 32bf
00000110: 38dd 18c0 c54d 8abf 9f1e 9a3f a8c9 d5bc
00000120: 79c0 79c0 06fe e2bd 31b7 113e fcad 2abf
00000130: 6132 af40 e972 8640 243a 8840 14d4 95bd
00000140: 4988 d5c0 d3e4 a840 432e ca3e 4220 0740
00000150: 6858 9cc0 b919 20c1 e08c be40 2808 96c0
00000160: 77bf 26c0 3f85 21c0 ec29 aec0 f959 a7c0
00000170: b041 1ac0 4239 d5c0 caed a2c0 69b6 883f
00000180: 964e 3fbf 0606 81c0 ee04 91c0 1bb7 8c3f

linearLow1.weight f4 [5, 3]
2.6914465 0.5349387 -2.3948011 5.8198028 0.3673844 2.1402664 0.755735 1.9408915
4.562752 1.7808039 -1.8780816 4.752306 0.0024869563 -0.5094423 0.008306885
00000000: a940 2c40 bef1 083f 6c44 19c0 d33b ba40
00000010: cf19 bc3e 20fa 0840 d977 413f 226f f83f
00000020: 1002 9240 62f1 e33f fa64 f0bf e412 9840
00000030: 34fc 223b d06a 02bf 9a19 083c

linearLow1.bias f4 [5]
1.8563137 -0.68976504 0.6962518 0.92786723 -0.52231103
00000000: b09b ed3f 7194 30bf 8f3d 323f b588 6d3f
00000010: 2db6 05bf

linearLow2.weight f4 [4, 5]
0.029661 -0.29094473 -0.1694443 -0.32581025 -0.43753415 -1.0858107 -4.3326807 3.0109076
1.6371619 -0.2501592 -7.6474624 -9.230628 -0.58807427 3.7926948 -0.28738478 -2.9858103
1.7773615 3.5821874 1.7697548 0.06475672
00000000: a0fb f23c b5f6 94be ce82 2dbe 9ad0 a6be
00000010: 7a04 e0be d8fb 8abf 52a5 8ac0 b6b2 4040
00000020: 858e d13f de14 80be 03b8 f4c0 a7b0 13c1
00000030: 098c 16bf 83bb 7240 1924 93be 8417 3fc0
00000040: 9580 e33f 8f42 6540 5387 e23f 2c9f 843d

linearLow2.bias f4 [4]
-0.013650954 0.6037815 1.7774643 1.1444404
00000000: 40a8 5fbc 6d91 1a3f f383 e33f 067d 923f

linearLow3.weight f4 [4, 4]
0.06551027 2.5906284 -9.935538 2.9408906 -0.38757265 0.873378 -1.827131 3.7833927
-0.29504466 3.2384005 3.9721408 0.2845356 -0.055282354 -0.025473595 -0.055143356 -0.4460433
00000000: 402a 863d dbcc 2540 f7f7 1ec1 8d37 3c40
00000010: ec6f c6be b395 5f3f 6edf e9bf 1b23 7240
00000020: 1810 97be f441 4f40 8e37 7e40 a6ae 913e
00000030: c06f 62bd 00ae d0bc 00de 61bd ca5f e4be

linearLow3.bias f4 [4]
0.9957944 1.7005095 -4.7737117 -0.31029463
00000000: 62ec 7e3f 4caa d93f 3fc2 98c0 f0de 9ebe

linear3.weight f4 [4, 8]
15.564668 4.6349344 -11.170925 -32.06566 0.98359805 0.7030994 -4.3335114 -0.20337498
-33.434097 -9.702325 0.30102602 -7.479754 2.8708477 -2.2312334 0.46901476 0.24289694
-1.3300762 -3.442351 -22.87058 15.199485 -3.391096 2.2645905 -0.57113796 0.10998359
-7.083287 2.556646 13.323905 -29.508284 -0.077553995 -2.717279 1.6427668 -0.22251175
00000000: e108 7941 6251 9440 1cbc 32c1 3c43 00c2
00000010: 15cd 7b3f 53fe 333f 20ac 8ac0 8841 50be
00000020: 84bc 05c2 b93c 1bc1 1520 9a3e 255a efc0
00000030: f8bb 3740 87cc 0ec0 b422 f03e fab9 783e
00000040: f03f aabf 7b4f 5cc0 f3f6 b6c1 1731 7341
00000050: b807 59c0 0def 1040 1936 12bf 143f e13d
00000060: 49aa e2c0 17a0 2340 b72e 5541 f710 ecc1
00000070: a1d4 9ebd e6e7 2dc0 2f46 d23f 1fda 63be

linear3.bias f4 [4]
3.287979 -11.148387 -6.7519765 -4.0199547
00000000: 3f6e 5240 cb5f 32c1 3110 d8c0 78a3 80c0
