algo/DQN/trained_model_0501/policy_net_4300.pt (torch_old, 2348 bytes, 9 tensors)

linear1.weight f4 [4, 25]
000000 61 6e 35 c0 20 d3 b5 c0 c3 21 97 c0 f3 2a 46 bf
       -2.834862 -5.682022 -4.7228713 -0.77409285
000010 15 df 09 3f b6 6d f8 bf 47 b5 26 bf 00 be af 3c
       0.5385602 -1.9408481 -0.6512036 0.021452904
000020 f8 64 5d bf 62 cf 7e bf 3b c9 0f c0 cf ee 48 3e
       -0.8648219 -0.9953519 -2.2466571 0.19622348
000030 78 a6 89 3c be ef a0 be 25 b4 4d c0 df c7 26 bf
       0.016803011 -0.3143291 -3.2141201 -0.6514873
000040 a2 1f e9 3f f3 70 83 3a c3 44 bd be 36 cd 35 c0
       1.8212779 0.0010028168 -0.36966524 -2.84065
000050 7b 1d c5 3c ed 1a 1b 41 14 4b 80 40 99 01 95 40
       0.024061909 9.694074 4.009165 4.656445
000060 b4 fd 2a c0 0d bb f4 3f a0 63 04 be dd 9b cf be
       -2.6717348 1.9119583 -0.12928629 -0.40548602
000070 08 59 fb be c6 ba 8b 3d 63 76 9e 40 a8 9b 5f bd
       -0.49091363 0.068227336 4.9519515 -0.054591805
000080 02 aa 13 3e 25 2e c3 bd 7c cb 89 bf 6f 89 9b 40
       0.14420322 -0.09530286 -1.0765224 4.8605266
000090 0d ab a3 3e aa bf c8 bc 03 d9 8e 3d fc bd 0c c0
       0.3196644 -0.024505455 0.069749855 -2.1990957
0000a0 28 ee a7 40 4c 3c af 3f 04 c2 bd ba 37 66 b2 bf
       5.247822 1.3690276 -0.0014477377 -1.3937443
0000b0 10 9a 47 bf c8 88 03 3e 0d f5 11 41 bb 82 ef 3f
       -0.77969456 0.12845147 9.122327 1.8711771
0000c0 f2 22 01 40 59 76 b3 bf 63 88 3a 3f e6 61 d7 be
       2.017758 -1.4020492 0.7286436 -0.42066878
0000d0 f8 61 cf c0 32 03 18 be 8e 91 19 3e 30 b0 cf 40
       -6.480709 -0.14844969 0.14996931 6.4902573
0000e0 2d ff 4e bf 6b a7 99 be 26 92 fb bf 27 7b 1c c0
       -0.8085812 -0.30010542 -1.9653976 -2.4450166
0000f0 78 e5 c2 40 79 32 be be 39 47 3d bf f9 e5 86 be
       6.0905113 -0.37147883 -0.739368 -0.2634733
000100 b6 f3 7a c0 15 f9 c8 40 68 14 71 3e 35 61 3e bf
       -3.921125 6.2804055 0.2354294 -0.74367076
000110 44 af f1 bf d0 86 b8 bf 7c 5a 26 3f 75 7a 97 bf
       -1.8881612 -1.4416142 0.6498182 -1.1834246
000120 c9 7d 62 c0 0f 5d ee be 09 8d 35 3e 6d b3 18 bf
       -3.5389273 -0.46555373 0.17729582 -0.5964878
000130 d4 55 bc 40 59 51 a0 40 38 82 88 40 c6 01 99 bf
       5.885477 5.00993 4.265896 -1.1953666
000140 cd 5a cc c0 95 b9 95 40 72 21 9b 3e be fe 0c 40
       -6.386084 4.678904 0.30298954 2.2030482
000150 0c ee aa c0 68 4e 12 c1 70 92 8c 40 9e d6 62 c0
       -5.3415585 -9.144142 4.3928757 -3.5443492
000160 b4 6e 34 bf ad 58 d6 bf 5b 63 a9 c0 b5 90 a9 c0
       -0.7048142 -1.6745812 -5.2933784 -5.2989144
000170 74 d3 9b bf 15 7c d0 c0 12 d6 a6 c0 44 db 57 3f
       -1.2173905 -6.5151467 -5.2136316 0.8431895
000180 50 e7 4c bf d9 14 83 c0 d5 3f a1 c0 ff ae 97 3f
       -0.80040455 -4.096295 -5.039042 1.185028

linearLow1.weight f4 [5, 3]
000000 e4 4d 1f 40 28 32 b5 3e d0 dd 2b c0 8d e6 b6 40
       2.489129 0.3538983 -2.6854134 5.7156434
000010 5c 76 b5 3e d9 84 f8 3f 72 82 4e 3f 7d ab e3 3f
       0.35441864 1.9415542 0.80667794 1.7786709
000020 ff 9a 90 40 01 17 c1 3f cb 95 ff bf dc c9 93 40
       4.5189204 1.5085145 -1.9967588 4.618391
000030 34 fc 22 3b d0 6a 02 bf 9a 19 08 3c
       0.0024869563 -0.5094423 0.008306885

linearLow1.bias f4 [5]
000000 92 c1 d5 3f 58 58 29 bf 80 8a 45 3f fc 0b 47 3f
       1.6699698 -0.66150427 0.7716446 0.7775266
000010 2d b6 05 bf
       -0.52231103

linearLow2.weight f4 [4, 5]
000000 a0 fb f2 3c b5 f6 94 be ce 82 2d be 9a d0 a6 be
       0.029661 -0.29094473 -0.1694443 -0.32581025
000010 7a 04 e0 be df c1 a0 bf ad e4 86 c0 97 bc 40 40
       -0.43753415 -1.2559165 -4.2154145 3.0115106
000020 48 6e c0 3f de 14 80 be 0c 1b e8 c0 85 2b 00 c1
       1.5033655 -0.2501592 -7.2533016 -8.010625
000030 a0 c5 0f bf 5a 89 60 40 19 24 93 be 9a 7e 50 c0
       -0.56160927 3.5083833 -0.28738478 -3.2577271
000040 69 47 e7 3f d2 60 5d 40 e7 db e5 3f 2c 9f 84 3d
       1.8068668 3.4590344 1.7957734 0.06475672

linearLow2.bias f4 [4]
000000 40 a8 5f bc a3 e0 22 3f 7f 9b d5 3f 87 d0 85 3f
       -0.013650954 0.6362402 1.6688079 1.0454262

linearLow3.weight f4 [4, 4]
000000 40 2a 86 3d 4d 50 20 40 e4 6e 22 c1 99 3b 34 40
       0.06551027 2.5049012 -10.152073 2.8161376
000010 ec 6f c6 be f0 b2 52 3f c8 bd ec bf 41 60 71 40
       -0.38757265 0.82304287 -1.8495417 3.7714999
000020 18 10 97 be b8 44 49 40 b3 3c 74 40 27 a5 93 3e
       -0.29504466 3.1448193 3.8162048 0.2883694
000030 c0 6f 62 bd 00 ae d0 bc 00 de 61 bd ca 5f e4 be
       -0.055282354 -0.025473595 -0.055143356 -0.4460433

linearLow3.bias f4 [4]
000000 cc eb 69 3f 6e f1 bc 3f f9 a3 97 c0 f0 de 9e be
       0.9137542 1.4761178 -4.738766 -0.31029463

linear3.weight f4 [4, 8]
000000 38 ea 67 41 58 52 96 40 7f 5b 3c c1 5e 3e ef c1
       14.494682 4.6975517 -11.772338 -29.905453
000010 e7 ee 78 3f 75 7f 3d 3f 6d 68 87 c0 88 41 50 be
       0.97239536 0.7402261 -4.2314973 -0.20337498
000020 2e ae f2 c1 f1 67 2e c1 0b 52 2e 3e 99 f2 dd c0
       -30.335049 -10.900376 0.17023484 -6.935864
000030 88 91 2f 40 e2 c5 fc bf 09 2b ea 3e fa b9 78 3e
       2.7432575 -1.9747889 0.45735958 0.24289694
000040 06 5b bf bf 59 b0 54 c0 51 a4 a2 c1 e3 f9 76 41
       -1.4949653 -3.3232634 -20.330233 15.4360075
000050 f2 ae 6a c0 8e 5a 0d 40 13 86 1d bf 14 3f e1 3d
       -3.6669278 2.208652 -0.61532706 0.10998359
000060 9c 3c d5 c0 86 00 0d 40 dd 73 49 41 25 02 d7 c1
       -6.6636486 2.203157 12.590787 -26.876047
000070 8a bf ef 3d df 65 25 c0 78 2e da 3f 1f da 63 be
       0.11706455 -2.5843427 1.7045431 -0.22251175

linear3.bias f4 [4]
000000 a3 a5 64 40 28 21 33 c1 f4 58 e3 c0 ae ff 73 c0
       3.5726097 -11.195595 -7.1046085 -3.8124804
