algo/DQN/trained_model_0501/policy_net_6200.pt (torch_old, 2348 bytes, 9 tensors)

linear1.weight f4 [4, 25]
00000000: c039 24c0 2b39 c4c0 515d b8c0 4284 acbf
00000010: 9b5d 1d3f ec98 e2bf a573 0cc0 5109 c9be
00000020: 7894 80bf 399f babf c604 f4bf 4662 61be
00000030: 8487 89be 3abd a0be d9f8 70c0 da99 b8bf
00000040: cfb8 1540 8ebe 89be b0e3 493e 7268 18c0
00000050: ce8f 24be 1d33 2c41 c95d 9540 9bdb a440
00000060: b60c 51c0 e2f1 1440 4bdf 1cbe fb98 ffbe
00000070: 1c52 52be ad05 0dbe 0c3a b040 3a61 c0be
00000080: 2a21 4fbe 4272 03be cc15 24bf 7e28 c640
00000090: 4ac9 2a3e b632 96bd d7db 1c3e 3ed0 1fc0
000000a0: ef27 b840 f644 453f 75c0 bdbe 26af 8fbf
000000b0: 3c04 30bf c086 06be 8ee2 2741 b648 0f40
000000c0: 18f6 e13f cd6d a0bf 9942 493f e275 b6be
000000d0: f61e d6c0 7bd8 56be 6531 7e3e e5f5 cf40
000000e0: 78e0 6bbf 78c8 01c0 42d9 3dc0 1277 2ac0
000000f0: cd24 db40 3a3b c1be 966c a3bd 9c32 1cbf
00000100: b2f2 9dc0 a1a8 d440 a1fe dd3e dedc 6cbf
00000110: 2096 22c0 fd5f 16be 08d3 863f 2ab6 f33d
00000120: 7e1d 85c0 4746 23be 89b6 39bd e41e 74be
00000130: fe2b b440 d5fa b040 c837 8b40 fe91 fbbe
00000140: 87ee c3c0 590c b340 3fe1 0dbf df26 0f40
00000150: 00c9 a2c0 0b55 1ec1 2e8b 9c40 7cfa a5c0
00000160: c4d2 9fc0 7a52 85c0 de09 adc0 0d1d 9fc0
00000170: 9bc3 0dc0 0195 d5c0 9d8f b1c0 7485 823e
00000180: d08e 9dbe 4a87 89c0 7a00 9bc0 4031 063f
-2.5660248 -6.1319785 -5.761391 -1.3477862 0.61470956 -1.7702918 -2.1945584 -0.3926492
-1.0045309 -1.4579841 -1.9063957 -0.22010145 -0.26861203 -0.31394368 -3.7651885 -1.4421952
2.3394048 -0.26903194 0.19715762 -2.3813748 -0.16070482 10.762479 4.6676984 5.1518073
-3.2664008 2.3272634 -0.15319555 -0.49921402 -0.20539135 -0.13771696 5.507086 -0.37574178
-0.20227495 -0.12836555 -0.6409576 6.192443 0.16678348 -0.07333891 0.15318237 -2.497085
5.7548747 0.7705835 -0.37060896 -1.1225326 -0.6875646 -0.1313734 10.492811 2.238813
1.7653227 -1.2533509 0.78617245 -0.35636812 -6.6912794 -0.20981018 0.2482353 6.4987664
-0.9213939 -2.0278606 -2.9663854 -2.6635175 6.8482423 -0.377405 -0.079796955 -0.61014724
-4.935876 6.6455846 0.4335833 -0.92524517 -2.540413 -0.14685054 1.0533152 0.118999794
-4.15985 -0.15944777 -0.045340095 -0.23839909 5.63037 5.530619 4.350559 -0.4913482
-6.122867 5.5952573 -0.55421823 2.2367475 -5.087036 -9.895762 4.8919897 -5.1868267
-4.994478 -4.166318 -5.4074545 -4.972296 -2.2150638 -6.674439 -5.548781 0.25492442
-0.3077302 -4.297765 -4.843808 0.524189

linearLow1.weight f4 [5, 3]
00000000: 552f 3b40 b7a6 453f 05ac 1fc0 986b b740
00000010: 50a5 db3e aa6f 0a40 01a5 373f a0a0 f03f
00000020: dafc 9640 101c f63f 3f18 ffbf e618 9d40
00000030: 34fc 223b d06a 02bf 9a19 083c
2.924764 0.7720751 -2.4948742 5.731884 0.4289956 2.1630654 0.7173615 1.8799019
4.7183657 1.9227314 -1.9929274 4.9092894 0.0024869563 -0.5094423 0.008306885

linearLow1.bias f4 [5]
00000000: f8d9 0640 bf86 3abf 56b2 1d3f 07f0 843f
00000010: 2db6 05bf
2.1070538 -0.72861856 0.61600244 1.038575 -0.52231103

linearLow2.weight f4 [4, 5]
00000000: a0fb f23c b5f6 94be ce82 2dbe 9ad0 a6be
00000010: 7a04 e0be 985f 8bbf 5674 88c0 ce2b 4440
00000020: 5090 e03f de14 80be 19f0 06c1 2a4e 1cc1
00000030: 4bb3 1dbf 015d 8040 1924 93be bf74 3cc0
00000040: bc0c da3f f24d 6d40 42fc e63f 2c9f 843d
0.029661 -0.29094473 -0.1694443 -0.32581025 -0.43753415 -1.0888548 -4.264201 3.0651736
1.7544041 -0.2501592 -8.433618 -9.769083 -0.61601704 4.011353 -0.28738478 -2.9446256
1.7035136 3.7078824 1.8045733 0.06475672

linearLow2.bias f4 [4]
00000000: 40a8 5fbc e926 3d3f 1e6d f93f 00dc 983f
-0.013650954 0.738875 1.9486425 1.1942139

linearLow3.weight f4 [4, 4]
00000000: 402a 863d 3e14 2940 46b3 1dc1 f16e 4640
00000010: ec6f c6be bb38 413f 29cf e8bf 3f98 6f40
00000020: 1810 97be 5236 5640 8590 8240 50a0 693e
00000030: c06f 62bd 00ae d0bc 00de 61bd ca5f e4be
0.06551027 2.6418605 -9.856268 3.1005213 -0.38757265 0.7547719 -1.818822 3.7436674
-0.29504466 3.3470654 4.0801415 0.2281506 -0.055282354 -0.025473595 -0.055143356 -0.4460433

linearLow3.bias f4 [4]
00000000: b783 8b3f ede3 eb3f 7c19 9ec0 f0de 9ebe
1.0899571 1.8428932 -4.940611 -0.31029463

linear3.weight f4 [4, 8]
00000000: 0183 8641 cadd 8a40 54eb 39c1 56ed 06c2
00000010: 2190 873f f514 373f 1fea 8cc0 8841 50be
00000020: b20c 0bc2 f5c4 1bc1 2b88 a43e 2149 fdc0
00000030: 0fd1 4040 f294 19c0 35d0 ce3e fab9 783e
00000040: b2e9 edbf 9049 5ac0 dfb0 cbc1 8a76 7241
00000050: 844a 56c0 c2d5 1340 5531 03bf 143f e13d
00000060: bd6a f3c0 4cfc 1d40 1a70 6641 518c 00c2
00000070: d6aa a1be 5151 38c0 e4fd ca3f 1fda 63be
16.813967 4.339574 -11.619953 -33.731773 1.059086 0.7151635 -4.403579 -0.20337498
-34.762398 -9.735585 0.32135138 -7.915177 3.01276 -2.399716 0.40393224 0.24289694
-1.8586943 -3.41074 -25.461363 15.15394 -3.348298 2.3099217 -0.5124715 0.10998359
-7.6067796 2.468524 14.402369 -32.137028 -0.3157565 -2.8799632 1.5858731 -0.22251175

linear3.bias f4 [4]
00000000: 2b82 4340 a7ff 38c1 f552 cdc0 b4ad 7cc0
3.0548198 -11.562415 -6.4163766 -3.948102
