algo/DQN/trained_model_0501/policy_net_1200.pt (torch_old, 2348 bytes, 9 tensors)

linear1.weight f4 [4, 25]
00000000: db22 d9bf 8c64 2cc0 1a2a 20c0 04fe 1bbf
00000010: 7813 57bc 7033 f6bf b6ad 98bf 13d3 33c0
00000020: 8faf 41bf 1303 4dbe 07b6 2bc0 7146 ab3d
00000030: 76f3 1fbe 1009 773b e7b7 59c0 4655 83bf
00000040: 8880 4840 b4b5 82be 6c40 efbe 04cc 1ec0
00000050: 5412 0c3f 1dcf ca40 480b 4840 60a9 3d40
00000060: d9b7 9bbe 1499 0740 1da6 8fbe 39c7 d2bf
00000070: b4fc 80bf 365d 5d3f e6e5 1740 9744 0dbf
00000080: 0e80 45bf 81d6 4bbf 7cb8 94bf df77 0b40
00000090: 74b8 7c3e cca5 163e 31dd e43d 6167 49c0
000000a0: cbd9 7240 da63 2440 be59 a53e d63d 9f3c
000000b0: 53b1 cabf 7062 093d 4345 dc40 127e 0840
000000c0: 7ce3 d63f cdd8 c2bd c510 833e df20 e4be
000000d0: b7e5 69c0 acef 9cbe 5898 bcbd 63fd 8540
000000e0: 179b aabd 04ed f3bc 4389 bbbf 6ab0 edbf
000000f0: d2fe 8e40 99cf d3be a6da b4be 8404 18bf
00000100: 3f32 42c0 9e4e a940 b71f cb3d 20f5 19bf
00000110: 28bf 5fbf 6eb7 eabf 82a7 093f 0629 73c0
00000120: 6127 0cc0 a9a5 8d3c 875c a03d 3f29 603e
00000130: bf84 4f40 fc52 5640 0478 5e40 6ecd 3b3f
00000140: f2c3 7cc0 31b6 8040 b6cf 1f3f 9a5f 423f
00000150: ef5a 8fc0 57cf b3c0 e04f 9040 0cd3 b0bb
00000160: 381a 67bf 3160 73bf ed6d 89c0 a84f 55c0
00000170: eb23 6abf 9772 6fc0 8b06 0cc0 d8b6 2fc0
00000180: 5d54 f4bf 49f6 ddbf 6ce9 80c0 5d45 df3e
-1.6963762 -2.693637 -2.5025697 -0.6093447 -0.0131272 -1.9234447 -1.1928012 -2.809758
-0.75658506 -0.20020704 -2.682985 0.08363045 -0.15620217 0.003769461 -3.4018495 -1.0260398
3.132845 -0.25529253 -0.46728837 -2.4812021 0.54715466 6.3377824 3.1256886 2.9634628
-0.30413702 2.1187181 -0.28056422 -1.6467048 -1.0077119 0.86470354 2.373407 -0.55182785
-0.7714852 -0.7962418 -1.16188 2.1791914 0.24679738 0.14711684 0.111750014 -3.1469347
3.794543 2.5685945 0.3229503 0.019438665 -1.5835365 0.033541143 6.883455 2.1326947
1.6788173 -0.09514008 0.25598732 -0.4455633 -3.6546457 -0.30651605 -0.09208745 4.187181
-0.08330362 -0.029776104 -1.4651264 -1.8569462 4.468606 -0.41369322 -0.35323066 -0.5938189
-3.0343168 5.290847 0.099181585 -0.60139656 -0.87401056 -1.8337228 0.5377122 -3.7993789
-2.1899035 0.017290907 0.07830148 0.21890734 3.2424772 3.348815 3.4760752 0.73360336
-3.9494596 4.02224 0.62426317 0.75927126 -4.4798503 -5.61906 4.5097504 -0.0053962525
-0.9027438 -0.9506865 -4.2946687 -3.3329868 -0.91461056 -3.741369 -2.1878994 -2.745535
-1.9088246 -1.7340785 -4.028494 0.43607607

linearLow1.weight f4 [5, 3]
00000000: 475a 3f40 722e 7b3d 8bff 30c0 7f79 6e40
00000010: 0311 343d c71c 7f3f e9fa 8f3e d84f e53f
00000020: 26d6 1b40 9c6e 8b3f aaf0 03c0 890b 3b40
00000030: 34fc 223b d06a 02bf 9a19 083c
2.989885 0.06132359 -2.765597 3.7261655 0.043961536 0.99653286 0.28121117 1.7914991
2.4349456 1.089313 -2.061564 2.922579 0.0024869563 -0.5094423 0.008306885

linearLow1.bias f4 [5]
00000000: 880f b53f e33b ecbe 55bb 993f 8865 673f
00000010: 2db6 05bf
1.4145365 -0.4613944 1.2010294 0.903893 -0.52231103

linearLow2.weight f4 [4, 5]
00000000: a0fb f23c b5f6 94be ce82 2dbe 9ad0 a6be
00000010: 7a04 e0be 3661 08c0 bd7a 34c0 c245 1040
00000020: 68b4 223f de14 80be 9fab b7c0 88ca 98c0
00000030: 806b 13bf cd31 3140 1924 93be 6a93 58c0
00000040: 1e94 023f 134e 2240 c026 d23f 2c9f 843d
0.029661 -0.29094473 -0.1694443 -0.32581025 -0.43753415 -2.1309333 -2.8199914 2.2542577
0.6355653 -0.2501592 -5.7397 -4.774723 -0.57585907 2.7686646 -0.28738478 -3.3839974
0.5100726 2.5360153 1.6418076 0.06475672

linearLow2.bias f4 [4]
00000000: 40a8 5fbc e8ef a23f 6a3c fe3f f098 6f3e
-0.013650954 1.2729464 1.9862187 0.23398185

linearLow3.weight f4 [4, 4]
00000000: 402a 863d 634d ad3f 5101 0ec1 670c 0940
00000010: ec6f c6be 3087 993f 450f d3bf 6e15 5f40
00000020: 1810 97be ee4e 2d40 415b 4e40 293b a63e
00000030: c06f 62bd 00ae d0bc 00de 61bd ca5f e4be
0.06551027 1.3539242 -8.875321 2.141382 -0.38757265 1.1994381 -1.6489035 3.485683
-0.29504466 2.7079425 3.2243197 0.3246701 -0.055282354 -0.025473595 -0.055143356 -0.4460433

linearLow3.bias f4 [4]
00000000: 5e06 ccbf 9a32 c43f a6ff 4ac0 f0de 9ebe
-1.5939443 1.5327942 -3.1718535 -0.31029463

linear3.weight f4 [4, 8]
00000000: d75c 1d41 33c4 3c40 4c9f 13c1 8f62 67c1
00000010: 6383 163f a97d 9a3f 1eaa 58c0 8841 50be
00000020: 3855 79c1 b105 39c1 d46b 63c0 67b1 aec0
00000030: bf9d 0c40 5408 5abf 1f7a c03e fab9 783e
00000040: 43db 53c0 e943 5ec0 c083 4fc1 37c1 4841
00000050: 901e 76c0 e00b d23f cc85 d3be 143f e13d
00000060: 3c62 d3c0 0e40 dc3f 5d24 1f41 3863 5fc1
00000070: 74af 303f 22b9 14c0 9927 f73f 1fda 63be
9.835166 2.949475 -9.226391 -14.461562 0.5879423 1.2069598 -3.3853831 -0.20337498
-15.583305 -11.5638895 -3.5534563 -5.4591556 2.197128 -0.8516896 0.3759317 0.24289694
-3.3102577 -3.472895 -12.969666 12.547172 -3.8456154 1.6409874 -0.41313016 0.10998359
-6.6057415 1.7207048 9.946378 -13.961723 0.6901772 -2.3237996 1.9308959 -0.22251175

linear3.bias f4 [4]
00000000: 8104 7240 4248 32c1 583d e5c0 13b5 62c0
3.781525 -11.142641 -7.1637383 -3.542302
