algo/DQN/trained_model_0501/policy_net_5300.pt (torch_old, 2348 bytes, 9 tensors)

linear1.weight f4 [4, 25]
000000 eb e1 3d c0 25 ab c2 c0 4e ea a3 c0 eb 49 56 bf
       -2.966914 -6.0833917 -5.1223516 -0.8370654
000010 cb c3 08 3f 56 ef ea bf cc 56 a6 bf 40 c9 3f 3d
       0.53423756 -1.835429 -1.2995238 0.046822786
000020 f3 10 67 bf 84 62 c4 bf 94 04 21 c0 ee de 19 3d
       -0.9026024 -1.5342565 -2.5159044 0.037566118
000030 8b 4e 65 be 0f 8f 6e bf fa f2 60 c0 3d 78 a4 bf
       -0.22393243 -0.9318704 -3.51483 -1.2849194
000040 ff 80 1e 40 78 c8 5d be fd 97 a9 3d bf 61 21 c0
       2.4766233 -0.21658504 0.082809426 -2.521591
000050 e7 fb 68 bb d6 3e 23 41 5a db 8b 40 1c dc 9b 40
       -0.0035550536 10.202841 4.3705263 4.870619
000060 68 4e 2e c0 cf 6c 12 40 2a c6 63 3e f1 53 af be
       -2.7235355 2.2878911 0.22243562 -0.3424373
000070 26 c4 9a be 3f 34 bb bc 28 d9 a5 40 dc e3 3e be
       -0.30227774 -0.022852061 5.1827583 -0.18641609
000080 37 16 3f 3e b3 c4 58 be e7 b1 39 bf 47 7c ad 40
       0.18660818 -0.21168785 -0.7253708 5.4214206
000090 2d eb 4d bd 93 ef 0b 3e fa 11 2b bd 60 27 02 c0
       -0.05027311 0.13665609 -0.04176519 -2.0336533
0000a0 9d 2a b3 40 0c d8 82 3f 3a 59 73 bd 10 ff 2c bf
       5.598952 1.0222182 -0.059411265 -0.67576694
0000b0 00 61 52 bf 2e 9f e6 bd 89 48 1d 41 03 93 00 40
       -0.8217926 -0.1126083 9.830209 2.008973
0000c0 74 ce f4 3f d9 cd bb bf 72 76 18 3f 93 f0 b5 bd
       1.9125504 -1.4672195 0.59555733 -0.088837765
0000d0 08 e3 d2 c0 7e b1 8f be c8 f6 d1 3d ff 7b d1 40
       -6.590214 -0.28065103 0.10252148 6.5463862
0000e0 c2 fc db bf 04 8d 99 bf f6 ed 20 c0 af c5 23 c0
       -1.718651 -1.199616 -2.514524 -2.5589406
0000f0 6e bc d3 40 cd 8d a2 bd c6 e8 91 bf bf 6e df be
       6.6167517 -0.079372026 -1.1399162 -0.4363918
000100 9b 34 89 c0 5d e8 d9 40 20 21 d9 3e 3c 42 3e bf
       -4.2876716 6.8096147 0.42408085 -0.74319816
000110 f0 79 19 c0 66 47 61 bf 19 65 a9 3f 45 30 a6 bc
       -2.3980675 -0.8799957 1.3233978 -0.020286689
000120 8f e6 7c c0 c8 27 16 be fe 98 af 3d 5e 85 0a bf
       -3.9515722 -0.14663613 0.08574103 -0.5410975
000130 ad ba a9 40 b0 d9 8b 40 f1 f7 86 40 d8 18 32 be
       5.3040376 4.370323 4.2177663 -0.1739229
000140 fc 65 ce c0 65 5b ab 40 4d 6f a1 3e ae ad e7 3f
       -6.4499493 5.3549066 0.31530228 1.8099878
000150 82 f2 9a c0 43 4a 21 c1 25 df ba 40 d3 aa a2 c0
       -4.842103 -10.08063 5.8397393 -5.0833526
000160 97 b4 3a c0 c6 f6 1f c0 52 a1 af c0 cf 2c a9 c0
       -2.9172723 -2.4994369 -5.4884424 -5.28672
000170 20 a9 30 c0 5f ea d3 c0 da 65 ac c0 ae 9f 65 3f
       -2.7603226 -6.6223598 -5.387433 0.89696777
000180 13 41 4d bf 46 95 81 c0 1f 4c 8f c0 f4 39 4e 3f
       -0.8017742 -4.049472 -4.478042 0.8055718

linearLow1.weight f4 [5, 3]
000000 5a 63 28 40 6b 40 10 3f 93 9e 17 c0 cf 27 bc 40
       2.631064 0.56348294 -2.3690536 5.8798594
000010 45 b1 df 3e 4d 34 05 40 57 18 46 3f dd 10 f2 3f
       0.43689933 2.0813172 0.7738089 1.8911396
000020 67 bd 93 40 67 86 e5 3f 5a 1d f5 bf 37 d0 97 40
       4.6168704 1.7931641 -1.9149582 4.744167
000030 34 fc 22 3b d0 6a 02 bf 9a 19 08 3c
       0.0024869563 -0.5094423 0.008306885

linearLow1.bias f4 [5]
000000 30 57 f5 3f 81 03 3c bf 56 48 2b 3f 36 9b 6b 3f
       1.9167233 -0.73442847 0.6690725 0.9203371
000010 2d b6 05 bf
       -0.52231103

linearLow2.weight f4 [4, 5]
000000 a0 fb f2 3c b5 f6 94 be ce 82 2d be 9a d0 a6 be
       0.029661 -0.29094473 -0.1694443 -0.32581025
000010 7a 04 e0 be 49 d0 8c bf f5 c6 8a c0 af 83 41 40
       -0.43753415 -1.1001064 -4.3367867 3.0236623
000020 2b 6e ca 3f de 14 80 be a7 61 f9 c0 1c de 12 c1
       1.581487 -0.2501592 -7.7931705 -9.179226
000030 53 b4 25 bf 2a 8a 73 40 19 24 93 be ca 00 38 c0
       -0.6472828 3.8053079 -0.28738478 -2.8750482
000040 89 85 e4 3f 45 41 66 40 88 b2 e4 3f 2c 9f 84 3d
       1.7853252 3.5977337 1.7866983 0.06475672

linearLow2.bias f4 [4]
000000 40 a8 5f bc ab 89 0a 3f 9c 41 e8 3f 15 c5 8f 3f
       -0.013650954 0.54116315 1.8145022 1.123202

linearLow3.weight f4 [4, 4]
000000 40 2a 86 3d da e5 26 40 8d cf 22 c1 1e 31 3d 40
       0.06551027 2.607779 -10.175672 2.9561229
000010 ec 6f c6 be 17 82 59 3f dc 97 e8 bf 32 84 72 40
       -0.38757265 0.84964126 -1.8171344 3.7893186
000020 18 10 97 be 94 96 4f 40 79 de 7a 40 62 4b 80 3e
       -0.29504466 3.2435656 3.9198287 0.25057513
000030 c0 6f 62 bd 00 ae d0 bc 00 de 61 bd ca 5f e4 be
       -0.055282354 -0.025473595 -0.055143356 -0.4460433

linearLow3.bias f4 [4]
000000 a1 4f 89 3f 49 8e d3 3f af 5c 9b c0 f0 de 9e be
       1.0727426 1.6527797 -4.855064 -0.31029463

linear3.weight f4 [4, 8]
000000 d7 d2 7d 41 ee c6 93 40 a7 a5 32 c1 d2 92 00 c2
       15.863975 4.6180334 -11.165442 -32.14338
000010 cb 36 7c 3f 2f a6 3a 3f f3 62 8a c0 88 41 50 be
       0.9852111 0.72909826 -4.324579 -0.20337498
000020 dd 6d 06 c2 0a bc 17 c1 7f c4 cb 3e 6b 01 e9 c0
       -33.60729 -9.483408 0.39798352 -7.281423
000030 63 16 3b 40 4f a9 10 c0 6c bf f2 3e fa b9 78 3e
       2.9232414 -2.2603338 0.47411668 0.24289694
000040 5e ff cd bf 81 6d 5a c0 57 78 b8 c1 5b 14 75 41
       -1.6093557 -3.4129336 -23.05876 15.31747
000050 63 27 5b c0 a1 37 0f 40 3f 9e 0c bf 14 3f e1 3d
       -3.424279 2.2377703 -0.54928964 0.10998359
000060 2c 08 de c0 79 97 24 40 89 14 58 41 3c 9c ed c1
       -6.9384975 2.5717452 13.505013 -29.701286
000070 23 71 1f be c9 ec 2e c0 ad 68 d2 3f 1f da 63 be
       -0.15570502 -2.7332022 1.6438195 -0.22251175

linear3.bias f4 [4]
000000 c9 4c 57 40 05 8a 31 c1 58 f9 d8 c0 15 48 80 c0
       3.3640616 -11.096196 -6.7804375 -4.008799
