algo/DQN/trained_model_0501/policy_net_1400.pt (torch_old, 2348 bytes, 9 tensors)

linear1.weight f4 [4, 25]
0	0xbfef1743	-1.8678974
1	0xc01b1899	-2.4233763
2	0xc032f9f1	-2.7965052
3	0xbf172fee	-0.5905751
4	0xbcc8d12a	-0.0245138
5	0xc001cad3	-2.0280044
6	0xbf220c4d	-0.6330002
7	0xc03ad6fc	-2.9193716
8	0xbf7849e6	-0.9698776
9	0xbde5c64b	-0.11219462
10	0xc02c9166	-2.6963744
11	0x3da2c664	0.07947996
12	0x3e45a0ad	0.19299574
13	0x3e3bdd6f	0.18346189
14	0xc06361f6	-3.552854
15	0xbf9ee031	-1.2412168
16	0x40403cfa	3.0037217
17	0xbed86d19	-0.42270735
18	0xbf1bce87	-0.6086201
19	0xc032e076	-2.79495
20	0x3ea85e39	0.32884386
21	0x40cbe226	6.371356
22	0x4063e71f	3.5609815
23	0x403cbc0e	2.948978
24	0xbe6f653b	-0.2337846
25	0x3fc2028a	1.5157025
26	0xbdc2b566	-0.09507255
27	0xbfd11f9b	-1.633777
28	0xbf864ba5	-1.0491835
29	0x3f0f5148	0.559834
30	0x4002f79f	2.0463636
31	0xbf346025	-0.70459205
32	0xbf8e026e	-1.1094491
33	0xbeb96124	-0.36206925
34	0xbf917cb5	-1.1366183
35	0x40363c47	2.847429
36	0x3d8aabc1	0.06771041
37	0xbeef7a7a	-0.4677313
38	0xbe55f5f5	-0.20894606
39	0xc05236c7	-3.2845933
40	0x406568a2	3.5845113
41	0x4020f715	2.5150807
42	0x3e5a3213	0.21308164
43	0x3e6b1e75	0.22960837
44	0xbff885ab	-1.9415792
45	0x3d440b31	0.047862235
46	0x40e15d1c	7.042616
47	0x3fed6f54	1.85496
48	0x3feb33a1	1.8375131
49	0x3dee3f80	0.116332054
50	0x3f26a8b1	0.6510115
51	0xbea09d53	-0.3137003
52	0xc0809a06	-4.0188017
53	0xbe12648b	-0.14296167
54	0x3e592393	0.21204977
55	0x40857e97	4.171703
56	0xbdf31c56	-0.11870639
57	0xbe94e09d	-0.29077616
58	0xbf5f8de7	-0.873259
59	0xc0018e0b	-2.0242946
60	0x40949994	4.6437473
61	0xbe66f394	-0.22553855
62	0xbf902806	-1.1262214
63	0xbfa8665d	-1.3156239
64	0xc0465a4d	-3.0992615
65	0x40a5e4d7	5.1841846
66	0xbe109f8d	-0.14123364
67	0xbe9cac55	-0.3060023
68	0xbf803c59	-1.0018417
69	0xbff48346	-1.9102561
70	0x3f1be3b5	0.6089433
71	0xc05ebbdc	-3.480216
72	0xc00d1001	-2.2041018
73	0x3d6db201	0.058031086
74	0xbdc00888	-0.09376627
75	0x3e054665	0.13015135
76	0x406637bb	3.5971515
77	0x406b1c29	3.6735938
78	0x406650ab	3.5986736
79	0xbdaf5eca	-0.085630015
80	0xc08dc050	-4.4297256
81	0x40807120	4.013809
82	0x3f6abc7f	0.9169387
83	0x3f7f84e6	0.9981216
84	0xc0795f95	-3.8964589
85	0xc0b32d67	-5.5992923
86	0x408ba021	4.363297
87	0xbec0cfbd	-0.37658492
88	0xbeef8944	-0.46784413
89	0xbf15becd	-0.58494264
90	0xc085e0b9	-4.183682
91	0xc07aad34	-3.9168215
92	0xbf3d2a51	-0.73892695
93	0xc0b3a772	-5.61419
94	0xc001f971	-2.0308497
95	0xc02fadaf	-2.7449758
96	0xbfe8f5a7	-1.8199967
97	0xbfd4430a	-1.6582959
98	0xc0838fce	-4.1113043
99	0x3f07d235	0.53055125

linearLow1.weight f4 [5, 3]
0	0x40355369	2.833216
1	0x3dc5a96c	0.09651455
2	0xc02a0e9f	-2.6571424
3	0x408a1447	4.3149753
4	0x3d9e8768	0.077406704
5	0x3f84a117	1.0361661
6	0x3ee0a1d6	0.4387347
7	0x3fdbdecf	1.7177371
8	0x4030db65	2.7633908
9	0x3f848b9d	1.0355107
10	0xc009343b	-2.143813
11	0x40479d8a	3.1189904
12	0x3b22fc34	0.0024869563
13	0xbf026ad0	-0.5094423
14	0x3c08199a	0.008306885

linearLow1.bias f4 [5]
0	0x3fb6fa58	1.4295149
1	0xbeee6846	-0.4656393
2	0x3f9f4ca4	1.2445264
3	0x3f51e10e	0.8198403
4	0xbf05b62d	-0.52231103

linearLow2.weight f4 [4, 5]
0	0x3cf2fba0	0.029661
1	0xbe94f6b5	-0.29094473
2	0xbe2d82ce	-0.1694443
3	0xbea6d09a	-0.32581025
4	0xbee0047a	-0.43753415
5	0xc005a36c	-2.0880995
6	0xc03f7c55	-2.9919636
7	0x4013e678	2.3109417
8	0x3f7cc158	0.9873252
9	0xbe8014de	-0.2501592
10	0xc0b84b4b	-5.759191
11	0xc0a1df1e	-5.058486
12	0xbf164f25	-0.58714515
13	0x40323c85	2.7849438
14	0xbe932419	-0.28738478
15	0xc0532b58	-3.2995205
16	0x3f2dec3f	0.6793861
17	0x40271476	2.6106238
18	0x3fcfbdb1	1.6229764
19	0x3d849f2c	0.06475672

linearLow2.bias f4 [4]
0	0xbc5fa840	-0.013650954
1	0x3f9aa38f	1.2081164
2	0x40003589	2.0032675
3	0x3ec53bc6	0.38522166

linearLow3.weight f4 [4, 4]
0	0x3d862a40	0.06551027
1	0x3fdadc5a	1.7098496
2	0xc11da731	-9.853318
3	0x3ffa4b8d	1.9554306
4	0xbec66fec	-0.38757265
5	0x3f841b82	1.0320895
6	0xbfce3c8b	-1.6112226
7	0x40679851	3.6186717
8	0xbe971018	-0.29504466
9	0x402f3c61	2.7380602
10	0x4052b588	3.2923298
11	0x3eb52538	0.35379958
12	0xbd626fc0	-0.055282354
13	0xbcd0ae00	-0.025473595
14	0xbd61de00	-0.055143356
15	0xbee45fca	-0.4460433

linearLow3.bias f4 [4]
0	0xbf6399f7	-0.88906807
1	0x3fa0197e	1.250778
2	0xc055daf9	-3.34149
3	0xbe9edef0	-0.31029463

linear3.weight f4 [4, 8]
0	0x4125b356	10.356283
1	0x40609f56	3.509725
2	0xc1247a7e	-10.279905
3	0xc1803a6e	-16.02853
4	0x3f28493e	0.6573676
5	0x3f959534	1.1686158
6	0xc05af032	-3.4209104
7	0xbe504188	-0.20337498
8	0xc183e8eb	-16.48873
9	0xc13d0d52	-11.815752
10	0xc044b161	-3.0733263
11	0xc080d613	-4.026132
12	0x40108762	2.258263
13	0xbf8da58c	-1.1066146
14	0x3ee1656c	0.4402269
15	0x3e78b9fa	0.24289694
16	0xc00e6a5f	-2.2252424
17	0xc04c84a7	-3.1955965
18	0xc165bfbe	-14.359312
19	0x41549f75	13.28893
20	0xc0702611	-3.7523234
21	0x3fced131	1.615759
22	0xbf0fff53	-0.5624897
23	0x3de13f14	0.10998359
24	0xc0dd59e3	-6.9172225
25	0x3fdc9cf5	1.72354
26	0x411870d8	9.52755
27	0xc16c0dca	-14.753366
28	0x3f3d8aa3	0.7403967
29	0xc018c5fe	-2.3870845
30	0x3ff93cc1	1.9471666
31	0xbe63da1f	-0.22251175

linear3.bias f4 [4]
0	0x406c4d64	3.6922235
1	0xc12ff8c0	-10.99823
2	0xc0fb1b6b	-7.847097
3	0xc0602d2f	-3.5027578
