algo/DQN/trained_model_0501/policy_net_2700.pt (torch_old, 2348 bytes, 9 tensors)

linear1.weight f4 [4, 25]
0	0xc0486e44	-3.13173
1	0xc081679b	-4.043897
2	0xc03d11b1	-2.9542048
3	0xbf004da3	-0.50118464
4	0x3e937957	0.28803512
5	0xbf8f282e	-1.1184137
6	0xbf79d1d4	-0.975858
7	0xbf8d8c61	-1.1058465
8	0xbf4e48a3	-0.80579585
9	0xbedb8072	-0.42871433
10	0xc00aee7c	-2.170806
11	0x3eee6fbb	0.4656962
12	0x3d30c2c9	0.04315451
13	0x3ce33927	0.027737213
14	0xc05c1e6f	-3.4393575
15	0xbf0d09ba	-0.55092967
16	0x40057288	2.0851154
17	0x3d6a34d1	0.057179276
18	0x3dcbf114	0.099580914
19	0xc039bbbc	-2.9020834
20	0xbe640aec	-0.22269791
21	0x410034ad	8.01286
22	0x4077b56e	3.8704486
23	0x4050e041	3.2636874
24	0xbfb00d61	-1.3754083
25	0x3fd1e9e0	1.6399498
26	0xbf174d0d	-0.59101945
27	0xbf4fd4ee	-0.8118428
28	0xbe69c8d4	-0.22830516
29	0xbd090487	-0.033451583
30	0x40539ad9	3.3063262
31	0xbf0e9d52	-0.557088
32	0xbe56aed3	-0.20965128
33	0xbddfebd2	-0.10933651
34	0xbf93e61f	-1.1554602
35	0x408d2e07	4.4118686
36	0x3ee7e025	0.45288196
37	0x3e774535	0.24147494
38	0xbe53bd54	-0.20677692
39	0xc02cbae1	-2.6989062
40	0x40a3174c	5.096594
41	0x3f470621	0.77743727
42	0x3dd066ce	0.101758584
43	0xc0035833	-2.0522583
44	0xbfa14c24	-1.2601361
45	0xbd78e160	-0.06076181
46	0x4100a506	8.040289
47	0x3f8a4968	1.0803652
48	0x3fd90f31	1.6957761
49	0xbefab2f4	-0.48964655
50	0x3f31adb0	0.6940565
51	0xbf298dfb	-0.6623227
52	0xc09c8338	-4.891018
53	0xbf0217cd	-0.5081757
54	0x3ee7fcb9	0.4531
55	0x409dd248	4.931919
56	0xbfc91c81	-1.5711824
57	0xbf1e8a90	-0.6193018
58	0xbf7c3a15	-0.98526126
59	0xc02bbab8	-2.6832714
60	0x40b3e940	5.622223
61	0xbec6c627	-0.38823053
62	0xbf558672	-0.8340827
63	0xbfb214fd	-1.3912655
64	0xc042b594	-3.0423326
65	0x40ba9f6e	5.8319616
66	0x3eb8b04d	0.36072007
67	0xbef2c9e2	-0.4741965
68	0xc0029f8b	-2.0409877
69	0xbf84a9f5	-1.0364367
70	0x3eef67ed	0.46758977
71	0xc03837d7	-2.8784082
72	0xc02cff02	-2.7030644
73	0xbeb230d2	-0.34802872
74	0x3e974801	0.29547122
75	0xbe75e847	-0.24014388
76	0x4095be10	4.679451
77	0x409e794c	4.9523067
78	0x4081a9e0	4.0519867
79	0xbfa44454	-1.2833352
80	0xc0bada87	-5.8391757
81	0x4090cb76	4.5248365
82	0x3ea5aa51	0.32356504
83	0x3fb778ea	1.4333775
84	0xc050667c	-3.2562551
85	0xc0ebee36	-7.3728285
86	0x40922cc1	4.567963
87	0xbee96f5c	-0.45592773
88	0xbef03098	-0.46912074
89	0xbfde1ae0	-1.7351952
90	0xc0732800	-3.7993164
91	0xc08192d4	-4.0491734
92	0xbf2b2368	-0.668509
93	0xc09172c0	-4.5452576
94	0xc076338a	-3.8468957
95	0xbf87918f	-1.0591296
96	0xbf803c61	-1.0018426
97	0xc0536b48	-3.303423
98	0xc0a21c7c	-5.065977
99	0x3f08983f	0.5335731

linearLow1.weight f4 [5, 3]
0	0x402625d5	2.596059
1	0x3e46625e	0.19373462
2	0xc051cc45	-3.2780926
3	0x40a2e304	5.090212
4	0x3e567623	0.20943503
5	0x3fca7235	1.5816103
6	0x3f50c69a	0.8155304
7	0x3fddda43	1.7332233
8	0x406bbbc2	3.6833348
9	0x3f8a5c1c	1.080936
10	0xc0169ca7	-2.3533113
11	0x4084a967	4.145679
12	0x3b22fc34	0.0024869563
13	0xbf026ad0	-0.5094423
14	0x3c08199a	0.008306885

linearLow1.bias f4 [5]
0	0x3fd83e62	1.6894038
1	0xbf17102c	-0.5900905
2	0x3f6e2f0b	0.9304053
3	0x3f19ad09	0.60029656
4	0xbf05b62d	-0.52231103

linearLow2.weight f4 [4, 5]
0	0x3cf2fba0	0.029661
1	0xbe94f6b5	-0.29094473
2	0xbe2d82ce	-0.1694443
3	0xbea6d09a	-0.32581025
4	0xbee0047a	-0.43753415
5	0xc007a248	-2.1192799
6	0xc0690e7c	-3.641509
7	0x4028d683	2.6380928
8	0x3faf0f40	1.3676529
9	0xbe8014de	-0.2501592
10	0xc0c28d2a	-6.079732
11	0xc0de7f72	-6.9530573
12	0xbf1a46e3	-0.60264415
13	0x4043d68a	3.0599694
14	0xbe932419	-0.28738478
15	0xc0609ed2	-3.5096936
16	0x3faab19b	1.3335451
17	0x4038cd16	2.8875175
18	0x3ffa0748	1.9533472
19	0x3d849f2c	0.06475672

linearLow2.bias f4 [4]
0	0xbc5fa840	-0.013650954
1	0x3f8897b6	1.0671299
2	0x3fd3993a	1.6531136
3	0x3f70e83a	0.9410435

linearLow3.weight f4 [4, 4]
0	0x3d862a40	0.06551027
1	0x4007f688	2.124422
2	0xc12c84b6	-10.7824
3	0x401a1afb	2.4078968
4	0xbec66fec	-0.38757265
5	0x3f5eedaf	0.87081426
6	0xbfde89f2	-1.7385848
7	0x4072b037	3.7920053
8	0xbe971018	-0.29504466
9	0x403c3cc1	2.9412081
10	0x40692496	3.642858
11	0x3e96136b	0.2931169
12	0xbd626fc0	-0.055282354
13	0xbcd0ae00	-0.025473595
14	0xbd61de00	-0.055143356
15	0xbee45fca	-0.4460433

linearLow3.bias f4 [4]
0	0x3d5553d9	0.052081916
1	0x3fc5b6ec	1.5446448
2	0xc083aad3	-4.1146026
3	0xbe9edef0	-0.31029463

linear3.weight f4 [4, 8]
0	0x41373822	11.451204
1	0x40932265	4.5979486
2	0xc1399194	-11.598042
3	0xc1ca3623	-25.276434
4	0x3f6970ef	0.9118795
5	0x3f600222	0.87503254
6	0xc07c72fd	-3.9445183
7	0xbe504188	-0.20337498
8	0xc1bb58df	-23.418394
9	0xc1423120	-12.136993
10	0x3e41a401	0.18910219
11	0xc0a556b9	-5.1668363
12	0x401f7f71	2.4921534
13	0xbfc81138	-1.5630255
14	0x3f16e5fd	0.58944684
15	0x3e78b9fa	0.24289694
16	0xbedc011b	-0.42969593
17	0xc0283aa7	-2.6285799
18	0xc18e4644	-17.78431
19	0x4181d4a7	16.228834
20	0xc0812e1d	-4.036879
21	0x3ffc4d76	1.9711139
22	0xbf41fe44	-0.75778604
23	0x3de13f14	0.10998359
24	0xc0b2861b	-5.5788703
25	0x40177613	2.3665817
26	0x412808e6	10.502172
27	0xc197ddf7	-18.983381
28	0x3f368d73	0.71309584
29	0xc0271442	-2.6106114
30	0x3ff12b8d	1.8841416
31	0xbe63da1f	-0.22251175

linear3.bias f4 [4]
0	0x4060d39e	3.512916
1	0xc1320bba	-11.127863
2	0xc0e61b1d	-7.1908097
3	0xc064d2e2	-3.5753713
