algo/DQN/trained_model_0501/policy_net_1000.pt (torch_old, 2348 bytes, 9 tensors)

linear1.weight f4 [4, 25]
000000 ec c5 0a c0 ac 14 23 c0 92 27 ec bf 75 19 a6 be
       -2.1683302 -2.5481367 -1.8449576 -0.32441297
000010 f2 de 2a 3e d7 f9 19 c0 96 66 e3 be b5 b7 29 c0
       0.1668661 -2.405874 -0.44414204 -2.6518376
000020 84 cf 99 bf 47 d7 d2 be 6d b3 2b c0 7d d0 1b 3e
       -1.2016454 -0.4117987 -2.6828263 0.1521625
000030 74 62 6a bf 90 1c d3 be 34 36 4d c0 29 9a a1 bf
       -0.9155648 -0.4123273 -3.2064333 -1.2625171
000040 0b 9d 3d 40 23 e0 ba bc 13 eb 7c be bc b3 17 c0
       2.9627101 -0.022811955 -0.24699049 -2.370345
000050 2d bc 2c 3f a7 bd ce 40 f5 d3 3d 40 b7 7c 37 40
       0.67474633 6.460651 2.9660618 2.866987
000060 cb 8e 20 be 12 de f3 3f 0c 56 67 be e7 28 52 c0
       -0.15679471 1.9052145 -0.22591418 -3.2837465
000070 56 0c 1e bf f5 aa 31 3f c1 57 0c 40 c1 dc 41 3f
       -0.61737573 0.69401485 2.192856 0.7572747
000080 5c e6 7e bf f0 0b e4 bf 16 99 aa bf 11 52 36 40
       -0.9957025 -1.7816143 -1.3327968 2.848759
000090 42 04 84 3f e7 02 95 be d8 ab 19 3f ee b7 3b c0
       1.0313799 -0.29103777 0.6002784 -2.9331012
0000a0 5f fa 6d 40 94 23 e4 3f ae ac ec be c1 cd 2b bc
       3.7184064 1.7823358 -0.46225494 -0.010486067
0000b0 99 57 b8 bf 25 5d a5 3e f4 1d c3 40 fd 2b 02 40
       -1.4401733 0.32297626 6.0974064 2.0339348
0000c0 f0 8e ce 3f 20 10 05 3f f8 44 55 3e 74 89 0f bf
       1.6137371 0.5197773 0.2082709 -0.5606911
0000d0 2a ec 55 c0 44 fd a4 be fe e8 90 3d 05 cc 89 40
       -3.3425393 -0.32224476 0.0707569 4.3061547
0000e0 bd 35 47 be 37 12 92 3d 6f dd bc bf 48 79 b5 bf
       -0.19454093 0.071323805 -1.4755076 -1.4177637
0000f0 eb ee 8e 40 07 86 0e bf 9f 2c bb 3d f6 bf 71 be
       4.466665 -0.5567326 0.0913937 -0.23608384
000100 d3 52 3c c0 a1 bb 98 40 85 20 7c 3d e3 fe 94 be
       -2.9425552 4.772904 0.06155445 -0.29100713
000110 03 64 e0 be 12 5a df bf 2c ca 08 3f 9a 15 82 c0
       -0.43826303 -1.7449362 0.5343349 -4.065137
000120 27 3b 07 c0 86 8c e7 3d 09 1b 97 3e 3e 07 00 3f
       -2.1129854 0.113060996 0.29512814 0.5001105
000130 89 51 4e 40 3d 57 52 40 64 bc 5d 40 55 35 3d 3f
       3.2237265 3.2865746 3.4646235 0.73909503
000140 22 50 62 c0 7c eb 73 40 64 fb 2a 3f 6f 22 2b 3f
       -3.536141 3.8112478 0.6678984 0.66849416
000150 b3 cc 83 c0 9a 12 ad c0 d4 8d 88 40 94 74 fa be
       -4.1187377 -5.4085207 4.267313 -0.48917067
000160 9f 1e 53 bf f5 89 cd bf 18 bd 84 c0 41 8f 5a c0
       -0.824686 -1.6057726 -4.1480827 -3.4149935
000170 44 96 a5 be a2 e9 7c c0 ba 91 df bf 0d d9 27 c0
       -0.32341206 -3.9517598 -1.7466347 -2.6226227
000180 61 63 b3 bf f7 b4 dc bf 46 ba 4d c0 8d 4a 1a 3e
       -1.4014703 -1.7242726 -3.2144942 0.15067501

linearLow1.weight f4 [5, 3]
000000 c5 a1 3a 40 a7 9a 1d bd 6d d6 34 c0 91 2c 4e 40
       2.9161236 -0.038477566 -2.8255875 3.22147
000010 4f 9a 86 3d 64 84 65 3f 50 5d cd 3e 67 fc e5 3f
       0.06572401 0.8965514 0.40110254 1.7967652
000020 50 5e fe 3f 3a d3 b0 3f e4 7d f2 bf 25 67 23 40
       1.9872532 1.3814461 -1.8944669 2.5531704
000030 34 fc 22 3b d0 6a 02 bf 9a 19 08 3c
       0.0024869563 -0.5094423 0.008306885

linearLow1.bias f4 [5]
000000 f7 f5 af 3f 17 99 c2 be 0f 82 9a 3f b9 9a 75 3f
       1.3746938 -0.38007423 1.2070941 0.95939213
000010 2d b6 05 bf
       -0.52231103

linearLow2.weight f4 [4, 5]
000000 a0 fb f2 3c b5 f6 94 be ce 82 2d be 9a d0 a6 be
       0.029661 -0.29094473 -0.1694443 -0.32581025
000010 7a 04 e0 be 6b 44 0d c0 d0 f1 20 c0 da ec 0b 40
       -0.43753415 -2.207301 -2.514759 2.1863313
000020 2a ce e3 3e de 14 80 be 35 41 b9 c0 52 86 86 c0
       0.44493228 -0.2501592 -5.78921 -4.2038965
000030 c1 74 17 bf 54 fc 2b 40 19 24 93 be 21 2d 52 c0
       -0.5916253 2.687276 -0.28738478 -3.2840044
000040 fd 1f f1 3e d3 08 1e 40 a6 22 ca 3f 2c 9f 84 3d
       0.47094718 2.4692886 1.5791824 0.06475672

linearLow2.bias f4 [4]
000000 40 a8 5f bc e6 e2 a6 3f 4e 1c f9 3f ba 90 1c 3e
       -0.013650954 1.3037994 1.9461763 0.15289584

linearLow3.weight f4 [4, 4]
000000 40 2a 86 3d b9 af 8d 3f 0e 07 f8 c0 1a 97 0b 40
       0.06551027 1.1069251 -7.750861 2.1810975
000010 ec 6f c6 be 44 6b 9e 3f 1f b8 d4 bf 3e ed 59 40
       -0.38757265 1.2376485 -1.6618689 3.405105
000020 18 10 97 be ca fb 29 40 71 64 45 40 5f 34 8b 3e
       -0.29504466 2.655993 3.0842555 0.27188393
000030 c0 6f 62 bd 00 ae d0 bc 00 de 61 bd ca 5f e4 be
       -0.055282354 -0.025473595 -0.055143356 -0.4460433

linearLow3.bias f4 [4]
000000 da 7c e2 bf 6e 15 b5 3f 86 6c 47 c0 f0 de 9e be
       -1.7694352 1.4147165 -3.1159987 -0.31029463

linear3.weight f4 [4, 8]
000000 6e a5 18 41 b7 6c fe 3f ce cb 00 c1 82 5a 50 c1
       9.540388 1.9876927 -8.049757 -13.022097
000010 27 86 ce 3e 27 92 9a 3f 37 bb 4d c0 88 41 50 be
       0.40336725 1.2075852 -3.2145517 -0.20337498
000020 33 41 53 c1 34 62 42 c1 04 c9 84 c0 7b 4a cd c0
       -13.203418 -12.148975 -4.149538 -6.415342
000030 1a 60 0d 40 a3 99 04 bf 18 35 3e 3e fa b9 78 3e
       2.2089906 -0.5179693 0.18574941 0.24289694
000040 42 46 8c c0 be aa 39 c0 18 3e 3f c1 47 7e 3e 41
       -4.3835764 -2.9010463 -11.95266 11.905829
000050 6e df 70 c0 c7 df c5 3f 3a bb 9d be 14 3f e1 3d
       -3.763637 1.5458916 -0.30806905 0.10998359
000060 4a da dc c0 9f c2 e1 3f b5 26 1e 41 3b 83 47 c1
       -6.9016466 1.7637519 9.88445 -12.469539
000070 88 44 47 3f 58 bd 17 c0 88 21 06 40 1f da 63 be
       0.77838945 -2.3709316 2.0957966 -0.22251175

linear3.bias f4 [4]
000000 55 07 78 40 a8 4e 2b c1 91 9f e0 c0 be 45 55 c0
       3.8754475 -10.706703 -7.0194783 -3.3323817
