algo/DQN/trained_model_0501/policy_net_3000.pt (torch_old, 2348 bytes, 9 tensors)

linear1.weight f4 [4, 25]
-3.0724819 -4.0923686 -3.5910206 -0.30259138 0.32461643 -1.2594929 -0.9619969 -0.75591934
-0.01306934 -0.50996655 -2.5178156 0.58605695 0.043923102 0.13509437 -3.387427 -0.9038714
1.6488748 0.40180832 0.19685644 -2.9648085 -0.06236823 8.1209135 3.726654 3.4001682
-1.5180463 2.1197097 -0.3801068 -0.34416565 -0.13337477 -0.12261382 4.093226 -0.5782891
-0.34434646 -0.07200899 -1.0790261 5.0511737 0.5687439 0.038994696 0.09802887 -2.4754074
4.867809 1.0203894 -0.025534127 -1.6625818 -1.0761108 0.17866847 8.193369 0.43892658
1.8338482 -0.72150594 0.556363 -0.23064145 -5.4057355 -0.31084284 0.27478677 4.8920674
-0.70927525 -0.6170178 -0.75780356 -2.6247115 5.869848 -0.18016863 -0.5240878 -0.64336675
-3.4155562 6.0895343 0.21518426 -0.80968225 -2.0553484 -1.503228 0.45161253 -2.060851
-2.96181 -0.62545645 0.06379919 -0.75846857 5.023019 4.6261997 3.952727 -0.37642503
-6.1535397 4.635185 0.46937066 1.7946374 -4.0814567 -7.651978 4.550835 -1.0221189
-0.3649635 -1.7089949 -4.1344395 -4.3727508 -0.47616878 -4.726389 -4.163013 -0.30922976
-0.8689615 -3.9471521 -5.106469 0.8999662
00000000: 8ba3 44c0 aff4 82c0 48d3 65c0 42ed 9abe
00000010: 2034 a63e 1037 a1bf 6e45 76bf ee83 41bf
00000020: c920 56bc 2b8d 02bf e423 21c0 d407 163f
00000030: b6e8 333d 2e56 0a3e 9bcb 58c0 1e64 67bf
00000040: 540e d33f d2b9 cd3e bc94 493e 6cbf 3dc0
00000050: d475 7fbd 43ef 0141 8081 6e40 5b9c 5940
00000060: 574f c2bf 53a9 0740 5c9d c2be 7b36 b0be
00000070: 6593 08be f41c fbbd b5fb 8240 c10a 14bf
00000080: 2e4e b0be 7379 93bd 871d 8abf 37a3 a140
00000090: 3399 113f e7b8 1f3d 5cc3 c83d 136d 1ec0
000000a0: 17c5 9b40 1f9c 823f f22c d1bc 7bcf d4bf
000000b0: 00be 89bf def4 363e 0a18 0341 fcba e03e
000000c0: 8abb ea3f 9db4 38bf ce6d 0e3f 462d 6cbe
000000d0: c9fb acc0 cb26 9fbe dab0 8c3e d18b 9c40
000000e0: 1093 35bf e1f4 1dbf 6aff 41bf 46fb 27c0
000000f0: cbd5 bb40 207e 38be 9e2a 06bf afb3 24bf
00000100: 7998 5ac0 77dd c240 4359 5c3e 5647 4fbf
00000110: d48a 03c0 c669 c0bf c239 e73e fce4 03c0
00000120: 4c8e 3dc0 ea1d 20bf 26a9 823d ff2a 42bf
00000130: 92bc a040 d409 9440 7bf9 7c40 c8ba c0be
00000140: cce9 c4c0 6f53 9440 5a51 f03e aeb6 e53f
00000150: 4b9b 82c0 01dd f4c0 71a0 9140 cbd4 82bf
00000160: 7fdc babe 58c0 dabf 544d 84c0 93ed 8bc0
00000170: 65cc f3be 943e 97c0 6737 85c0 5d53 9ebe
00000180: 4374 5ebf 249e 7cc0 3268 a3c0 2f64 663f

linearLow1.weight f4 [5, 3]
2.3827271 0.33882058 -3.2814016 5.396343 0.25289902 1.6307571 0.7516962 1.5742458
3.9499242 1.2121276 -2.4076867 4.3049383 0.0024869563 -0.5094423 0.008306885
00000000: 9a7e 1840 e479 ad3e 7c02 52c0 d8ae ac40
00000010: fb7b 813e a6bc d03f 2a6f 403f e380 c93f
00000020: 8fcb 7c40 ff26 9b3f 8a17 1ac0 0ec2 8940
00000030: 34fc 223b d06a 02bf 9a19 083c

linearLow1.bias f4 [5]
1.8694682 -0.5998109 0.8707738 0.6241937 -0.52231103
00000000: bc4a ef3f 358d 19bf 08eb 5e3f 29cb 1f3f
00000010: 2db6 05bf

linearLow2.weight f4 [4, 5]
0.029661 -0.29094473 -0.1694443 -0.32581025 -0.43753415 -1.8882666 -3.7603042 2.7297938
1.5396965 -0.2501592 -6.84003 -7.1049776 -0.5363246 3.149742 -0.28738478 -3.569923
1.5548966 2.9729273 1.9727458 0.06475672
00000000: a0fb f23c b5f6 94be ce82 2dbe 9ad0 a6be
00000010: 7a04 e0be b8b2 f1bf d3a8 70c0 f1b4 2e40
00000020: c614 c53f de14 80be 87e1 dac0 fa5b e3c0
00000030: 924c 09bf 5f95 4940 1924 93be 9e79 64c0
00000040: da06 c73f 7144 3e40 ef82 fc3f 2c9f 843d

linearLow2.bias f4 [4]
-0.013650954 1.0273657 1.4386424 0.970492
00000000: 40a8 5fbc b880 833f 6f25 b83f 2a72 783f

linearLow3.weight f4 [4, 4]
0.06551027 2.2303116 -10.316632 2.4495988 -0.38757265 0.8436158 -1.7554033 3.8181586
-0.29504466 2.996201 3.700042 0.30910125 -0.055282354 -0.025473595 -0.055143356 -0.4460433
00000000: 402a 863d 6dbd 0e40 ed10 25c1 3ac6 1c40
00000010: ec6f c6be 34f7 573f 0eb1 e0bf b65c 7440
00000020: 1810 97be c2c1 3f40 7dcd 6c40 8542 9e3e
00000030: c06f 62bd 00ae d0bc 00de 61bd ca5f e4be

linearLow3.bias f4 [4]
0.32451317 1.4990554 -4.263754 -0.31029463
00000000: 9726 a63e 0ce1 bf3f ac70 88c0 f0de 9ebe

linear3.weight f4 [4, 8]
11.769578 4.6862164 -11.529338 -26.013458 0.95046735 0.8809299 -4.0770717 -0.20337498
-24.533895 -11.834449 0.17790633 -5.7547874 2.5719373 -1.623897 0.6275834 0.24289694
-0.013322396 -3.0956435 -17.686493 16.411024 -3.8126717 1.9374143 -0.7869302 0.10998359
-5.293368 2.4875405 11.21502 -20.339314 0.7846483 -2.638702 1.8259852 -0.22251175
00000000: 3150 3c41 7cf5 9540 2b78 38c1 901b d0c1
00000010: d451 733f 9f84 613f 5f77 82c0 8841 50be
00000020: 6b45 c4c1 e759 3dc1 142d 363e 3827 b8c0
00000030: 9f9a 2440 dbdb cfbf 4ea9 203f fab9 783e
00000040: 2e46 5abc 061f 46c0 f07d 8dc1 c749 8341
00000050: d002 74c0 31fd f73f 4274 49bf 143f e13d
00000060: 4563 a9c0 dd33 1f40 b970 3341 eab6 a2c1
00000070: b6de 483f 7ee0 28c0 e2b9 e93f 1fda 63be

linear3.bias f4 [4]
3.6355944 -11.2952585 -7.4707904 -3.6083136
00000000: 94ad 6840 61b9 34c1 b710 efc0 9cee 66c0
