algo/DQN/trained_model_0501/policy_net_2000.pt (torch_old, 2348 bytes, 9 tensors)

linear1.weight f4 [4, 25]
-1.541844 -3.7550125 -3.138344 -0.440049 0.30226007 -1.3765584 -1.2395164 -2.7763672
-0.38242263 -0.3052 -2.7202156 -0.26713356 -0.9599726 -0.14784837 -3.474486 -0.781871
2.4356198 -1.3956394 -0.40931192 -2.8130689 0.19645436 6.9339004 3.5916429 3.3707206
-0.5479612 2.239944 -0.7359231 -0.74762785 -0.30788228 0.21286033 3.0360844 0.013569061
-0.5557558 9.2659175e-05 -1.4094628 3.9036906 0.48872972 0.530618 -0.12679514 -2.946109
4.2439666 1.5950603 -0.37238774 -1.3356175 -1.0517257 -0.071921684 7.5128794 1.0813756
1.737975 -0.610587 0.8693201 -0.6845099 -4.2887483 -0.47813752 0.32510585 4.1981363
0.06373946 -0.4177057 -0.6520551 -2.301306 5.3529124 0.10327313 -1.44139 -1.1934458
-3.5599318 5.426064 0.31609204 0.038065825 -1.4664093 -1.783592 0.73557055 -3.5064752
-2.4297132 -0.49766335 0.32105076 0.63652897 3.9565644 4.37971 3.835665 -0.22122173
-5.099908 4.1575894 0.5718996 1.212684 -2.6428068 -6.1608186 4.1281505 -0.99853456
-0.097136684 -0.64580035 -4.2486696 -4.4137735 -1.219872 -5.4132175 -3.391227 -2.6025956
-1.7204723 -2.6010232 -4.7442675 1.3592772
00000000: 255b c5bf 2052 70c0 a1da 48c0 1a4e e1be
00000010: d5c1 9a3e 1133 b0bf 79a8 9ebf 00b0 31c0
00000020: e6cc c3be 2d43 9cbe 0318 2ec0 bbc5 88be
00000030: c4c0 75bf 9065 17be fb5d 5ec0 b328 48bf
00000040: 32e1 1b40 50a4 b2bf 5591 d1be 5209 34c0
00000050: 552b 493e 83e2 dd40 7add 6540 e3b9 5740
00000060: 2f47 0cbf 3e5b 0f40 7565 3cbf 8a64 3fbf
00000070: bfa2 9dbe 0ff8 593e 354f 4240 c450 5e3c
00000080: 0346 0ebf 0452 c238 4769 b4bf 11d6 7940
00000090: c83a fa3e 95d6 073f 96d6 01be 0d8d 3cc0
000000a0: 93ce 8740 f02a cc3f 9ba9 bebe 84f5 aabf
000000b0: f39e 86bf ad4b 93bd 8269 f040 846a 8a3f
000000c0: f775 de3f 6e4f 1cbf c38b 5e3f 0a3c 2fbf
000000d0: 6d3d 89c0 71ce f4be 4674 a63e 2257 8640
000000e0: d689 823d 86dd d5be 15ed 26bf 9948 13c0
000000f0: 0f4b ab40 dd80 d33d 787f b8bf d5c2 98bf
00000100: ecd5 63c0 51a2 ad40 d1d6 a13e e9ea 1b3d
00000110: 4db3 bbbf be4c e4bf 5a4e 3c3f 176a 60c0
00000120: 6c80 1bc0 bbcd febe c460 a43e 90f3 223f
00000130: 5a38 7d40 9626 8c40 897b 7540 f387 62be
00000140: 7232 a3c0 f90a 8540 0368 123f 3b39 9b3f
00000150: bf23 29c0 6d25 c5c0 cf19 8440 f69f 7fbf
00000160: 99ef c6bd 2c53 25bf 1af5 87c0 a23d 8dc0
00000170: c424 9cbf 1439 adc0 dd09 59c0 ed90 26c0
00000180: 7038 dcbf 2a77 26c0 0ad1 97c0 ccfc ad3f

linearLow1.weight f4 [5, 3]
2.6049674 0.30499157 -2.9143958 4.934098 0.15386522 1.2529682 0.7657769 1.843626
3.2234085 1.0240327 -2.142633 3.9208627 0.0024869563 -0.5094423 0.008306885
00000000: c9b7 2640 db27 9c3e 7685 3ac0 21e4 9d40
00000010: d88e 1d3e 4361 a03f f409 443f f0fb eb3f
00000020: 534c 4e40 8113 833f e620 09c0 6aef 7a40
00000030: 34fc 223b d06a 02bf 9a19 083c

linearLow1.bias f4 [5]
1.7073181 -0.483214 1.0691854 0.74009097 -0.52231103
00000000: 6689 da3f d367 f7be 11db 883f 9a76 3d3f
00000010: 2db6 05bf

linearLow2.weight f4 [4, 5]
0.029661 -0.29094473 -0.1694443 -0.32581025 -0.43753415 -2.1649501 -3.34629 2.4666505
1.3891453 -0.2501592 -5.340401 -5.294008 -0.6702283 2.9961329 -0.28738478 -3.4888854
1.07232 2.7672548 1.884548 0.06475672
00000000: a0fb f23c b5f6 94be ce82 2dbe 9ad0 a6be
00000010: 7a04 e0be 8b8e 0ac0 9e29 56c0 9add 1d40
00000020: 83cf b13f de14 80be 91e4 aac0 8368 a9c0
00000030: 1594 2bbf a4c0 3f40 1924 93be e649 5fc0
00000040: c841 893f b41a 3140 de38 f13f 2c9f 843d

linearLow2.bias f4 [4]
-0.013650954 1.1891948 1.8151965 0.72022355
00000000: 40a8 5fbc 8937 983f 5c58 e83f 9260 383f

linearLow3.weight f4 [4, 4]
0.06551027 1.9444243 -10.293347 2.31355 -0.38757265 0.9816131 -1.6496328 3.7792733
-0.29504466 2.860433 3.5517478 0.31110343 -0.055282354 -0.025473595 -0.055143356 -0.4460433
00000000: 402a 863d e5e2 f83f 8db1 24c1 3411 1440
00000010: ec6f c6be ff4a 7b3f 2b27 d3bf 9ddf 7140
00000020: 1810 97be 5611 3740 d64f 6340 f348 9f3e
00000030: c06f 62bd 00ae d0bc 00de 61bd ca5f e4be

linearLow3.bias f4 [4]
-0.42543957 1.4496375 -3.731671 -0.31029463
00000000: 37d3 d9be b98d b93f b3d3 6ec0 f0de 9ebe

linear3.weight f4 [4, 8]
10.635894 4.532897 -12.021403 -20.565742 0.82717866 0.9849006 -3.7691042 -0.20337498
-20.656883 -12.165577 -1.1135478 -4.1073236 2.322879 -1.2678857 0.45461327 0.24289694
-0.33239225 -2.6198056 -16.424746 14.799665 -3.8589492 1.8972983 -0.68326944 0.10998359
-6.2338185 1.8901746 9.612526 -16.055307 1.1545557 -2.5619183 1.9132752 -0.22251175
00000000: 9f2c 2a41 7e0d 9140 ab57 40c1 a486 a4c1
00000010: fbc1 533f 7222 7c3f 0139 71c0 8841 50be
00000020: 4c41 a5c1 34a6 42c1 bc88 8ebf 326f 83c0
00000030: 0daa 1440 144a a2bf 12c3 e83e fab9 783e
00000040: 512f aabe e5aa 27c0 e165 83c1 6ecb 6c41
00000050: 06f9 76c0 acda f23f bfea 2ebf 143f e13d
00000060: 717b c7c0 3ef1 f13f e8cc 1941 4571 80c1
00000070: 7bc8 933f 78f6 23c0 34e6 f43f 1fda 63be

linear3.bias f4 [4]
3.5827487 -11.118266 -7.7829385 -3.753421
00000000: c14b 6540 6be4 31c1 d50d f9c0 0d38 70c0
