algo/DQN/trained_model_0501/policy_net_6900.pt (torch_old, 2348 bytes, 9 tensors)

linear1.weight f4 [4, 25]
0	0xc022409b	-2.5351932
1	0xc0ccd341	-6.400788
2	0xc0b90b36	-5.7826185
3	0xbf761210	-0.9612131
4	0x3eba374c	0.36370313
5	0xbfe61419	-1.7974883
6	0xc00bed6a	-2.1863656
7	0xbe488c56	-0.19584784
8	0xbfa96593	-1.3234123
9	0xbfdb3445	-1.7125326
10	0xc00f8b4a	-2.2428765
11	0xbeaff259	-0.34364584
12	0xbe8c90f1	-0.27454332
13	0xbe9e918b	-0.30970415
14	0xc07d1bff	-3.9548337
15	0xbfb2898b	-1.3948225
16	0x400f2c00	2.2370605
17	0x3e4b514a	0.19855228
18	0x3ce80a57	0.028325243
19	0xc00fe154	-2.248128
20	0x3dca23f5	0.098701395
21	0x41366958	11.400719
22	0x409ad006	4.8378935
23	0x40a9de2e	5.3083715
24	0xc0517779	-3.272917
25	0x403239dc	2.7847815
26	0xbdbd483a	-0.09242292
27	0xbf0de656	-0.5542959
28	0xbe5790c3	-0.21051316
29	0x3c332bea	0.010935763
30	0x40baf085	5.8418603
31	0x3d6c288a	0.05765585
32	0xbe488faa	-0.19586053
33	0xbdc34400	-0.09534454
34	0xbf5ccf4d	-0.86253816
35	0x40b5c7e9	5.680653
36	0x3ea0b2ca	0.31386405
37	0x3de59085	0.112092055
38	0xbe7114ab	-0.2354304
39	0xc030cb11	-2.7623942
40	0x40bda44c	5.926306
41	0x3f922933	1.1418823
42	0xbdf6a7df	-0.120437376
43	0xbe61f89d	-0.22067495
44	0xbf58274a	-0.8443495
45	0xbe827361	-0.25478652
46	0x412dba1b	10.857936
47	0x3ffd47a4	1.9787488
48	0x40102c10	2.2526894
49	0xbfa1f304	-1.2652287
50	0x3ee15f10	0.4401784
51	0xbebe4fc8	-0.37170243
52	0xc0dacf71	-6.8378224
53	0xbec859f0	-0.39131117
54	0x3e0ec6f2	0.13943079
55	0x40e2412e	7.0704565
56	0xbfb41821	-1.4069864
57	0xc0066d46	-2.1004195
58	0xc00ea329	-2.2287085
59	0xc010d694	-2.2630968
60	0x40e49b94	7.1439915
61	0xbf04b335	-0.5183595
62	0xbea0fbc9	-0.31442097
63	0xbf2907c8	-0.660275
64	0xc09fda40	-4.995392
65	0x40d63363	6.693773
66	0x3ea10e80	0.31456375
67	0xbf50eb2b	-0.8160884
68	0xc047bd5a	-3.120932
69	0xbed3d5ab	-0.41373953
70	0x3ec8b283	0.39198694
71	0xbd1a4a3d	-0.037668455
72	0xc0693c29	-3.644297
73	0xbeaad562	-0.33365923
74	0x3e6a646a	0.22889867
75	0xbecf8cb0	-0.40537024
76	0x40b934b7	5.787685
77	0x40aeff48	5.4686623
78	0x40981696	4.752757
79	0xbf6498fa	-0.89295924
80	0xc0ca8b0e	-6.3294744
81	0x40ad674f	5.418861
82	0xbe8b488e	-0.27203792
83	0x40079cdb	2.1189487
84	0xc09e4c5f	-4.9468226
85	0xc11a4cc3	-9.643741
86	0x409b68c3	4.8565383
87	0xc0a65cbc	-5.19882
88	0xc0b0fa4c	-5.530554
89	0xc096f48f	-4.7173533
90	0xc0ab2e2d	-5.3493867
91	0xc0bcd525	-5.9010186
92	0xc0420026	-3.031259
93	0xc0dd23bc	-6.910612
94	0xc0b17e54	-5.546671
95	0x3e805f03	0.25072488
96	0xbefaa59a	-0.4895447
97	0xc092f9db	-4.593
98	0xc099943d	-4.7993455
99	0x3f3a6ab8	0.7281909

linearLow1.weight f4 [5, 3]
0	0x403b040b	2.9221218
1	0x3f696959	0.9117637
2	0xc00913c2	-2.141831
3	0x40c06618	6.0124626
4	0x3f07dcea	0.53071463
5	0x400a33cb	2.1594112
6	0x3f32e512	0.69880784
7	0x3ff46e09	1.909608
8	0x409a6e3a	4.8259554
9	0x4006f598	2.1087399
10	0xc008c17e	-2.1368098
11	0x409e16b3	4.940271
12	0x3b22fc34	0.0024869563
13	0xbf026ad0	-0.5094423
14	0x3c08199a	0.008306885

linearLow1.bias f4 [5]
0	0x400b7300	2.178894
1	0xbf49f8d6	-0.7889532
2	0x3f100112	0.56251633
3	0x3f8224a0	1.0167427
4	0xbf05b62d	-0.52231103

linearLow2.weight f4 [4, 5]
0	0x3cf2fba0	0.029661
1	0xbe94f6b5	-0.29094473
2	0xbe2d82ce	-0.1694443
3	0xbea6d09a	-0.32581025
4	0xbee0047a	-0.43753415
5	0xbf80fc5e	-1.0077016
6	0xc08ac5d0	-4.336647
7	0x4048c346	3.1369185
8	0x3fe15f1c	1.760715
9	0xbe8014de	-0.2501592
10	0xc1098906	-8.595953
11	0xc11cac62	-9.792086
12	0xbf2e373f	-0.6805305
13	0x4086f8a2	4.2178507
14	0xbe932419	-0.28738478
15	0xc03bbf2a	-2.9335427
16	0x3fe8f1be	1.8198774
17	0x406f16c7	3.7357652
18	0x3fdfd290	1.7486134
19	0x3d849f2c	0.06475672

linearLow2.bias f4 [4]
0	0xbc5fa840	-0.013650954
1	0x3f412318	0.75444174
2	0x400190ba	2.0244584
3	0x3f938d79	1.1527549

linearLow3.weight f4 [4, 4]
0	0x3d862a40	0.06551027
1	0x40295ca6	2.6462798
2	0xc1307f92	-11.031145
3	0x4047064c	3.1097593
4	0xbec66fec	-0.38757265
5	0x3f27fb67	0.65617985
6	0xbfdfc21d	-1.7481114
7	0x406eba1f	3.73011
8	0xbe971018	-0.29504466
9	0x405a0e38	3.4071178
10	0x4082276a	4.0673113
11	0x3e96e7dc	0.2947377
12	0xbd626fc0	-0.055282354
13	0xbcd0ae00	-0.025473595
14	0xbd61de00	-0.055143356
15	0xbee45fca	-0.4460433

linearLow3.bias f4 [4]
0	0x3f896534	1.073401
1	0x3fef1603	1.8678592
2	0xc09e3492	-4.9439173
3	0xbe9edef0	-0.31029463

linear3.weight f4 [4, 8]
0	0x4190f985	18.121836
1	0x409069f4	4.5129337
2	0xc13c9908	-11.787361
3	0xc20c3cae	-35.059258
4	0x3f880c71	1.0628797
5	0x3f457756	0.7713522
6	0xc08a77e7	-4.3271365
7	0xbe504188	-0.20337498
8	0xc211b026	-36.42202
9	0xc11419a6	-9.256262
10	0x3f1e20b9	0.6176868
11	0xc1029df9	-8.163568
12	0x404690c2	3.1025853
13	0xc024c561	-2.574547
14	0x3e9a7697	0.30168602
15	0x3e78b9fa	0.24289694
16	0xc007e785	-2.1235058
17	0xc0610dee	-3.5164752
18	0xc1de284b	-27.769674
19	0x416d24ab	14.821452
20	0xc048df93	-3.138646
21	0x4015fd86	2.3435988
22	0xbed1ad10	-0.4095235
23	0x3de13f14	0.10998359
24	0xc0fa8495	-7.8286843
25	0x4012eca6	2.2956939
26	0x416db632	14.856981
27	0xc206e93c	-33.727768
28	0xbeee38d0	-0.4652772
29	0xc035c3a3	-2.8400657
30	0x3fd56001	1.6669923
31	0xbe63da1f	-0.22251175

linear3.bias f4 [4]
0	0x404281d0	3.0391731
1	0xc140098f	-12.002334
2	0xc0cb302d	-6.349631
3	0xc070aab1	-3.7604182
