algo/DQN/trained_model_0501/policy_net_3600.pt (torch_old, 2348 bytes, 9 tensors)

linear1.weight f4 [4, 25]
000000 ac f8 56 c0 27 e5 96 c0 43 8e 89 c0 ad f5 32 bf
       -3.3589277 -4.7154727 -4.298616 -0.6990612
000010 cb c6 e6 3e 84 06 88 bf e8 9c 3e bf 7a 69 10 bd
       0.45073542 -1.0626988 -0.7445817 -0.03525684
000020 42 9b 5b bf f2 7e 51 bf ba 3a 33 c0 46 cf a5 3b
       -0.8578378 -0.8183433 -2.8004594 0.0050601093
000030 35 7b e1 3d 39 cd 78 be fe 3a 53 c0 11 ae 5b bf
       0.11009828 -0.24297036 -3.3004756 -0.8581248
000040 fb 9d 01 40 69 18 17 3f 39 15 a8 be 50 ac 3e c0
       2.0252674 0.5902162 -0.32828692 -2.9792671
000050 c1 d0 ed 3c c0 45 0c 41 82 c6 77 40 c6 07 81 40
       0.029030206 8.767029 3.871491 4.032199
000060 a6 e3 00 c0 6e a0 0b 40 b3 5f bb be 46 58 8d be
       -2.0138946 2.1816669 -0.3659645 -0.2760641
000070 db 09 98 be 42 68 cd bd 8f 76 94 40 74 54 1e 3c
       -0.2969502 -0.10029651 4.6394725 0.00966369
000080 71 a8 84 be f3 d7 a9 be a3 26 b4 bf 9d cf 99 40
       -0.2590976 -0.3317257 -1.4074291 4.8065934
000090 48 e9 26 3e b6 30 21 3e 9a 00 07 3e 58 56 03 c0
       0.16299927 0.15741238 0.13183823 -2.052145
0000a0 5f 52 9f 40 1e 87 d1 3f 8e 99 27 be 4a 5f 80 bf
       4.978805 1.636936 -0.1636717 -1.002908
0000b0 b5 ff 77 bf dd 56 04 be 17 c6 0b 41 e4 8f a8 3f
       -0.9687455 -0.1292376 8.735862 1.3168912
0000c0 f9 2a e7 3f e4 8b 53 bf 31 cd 0d 3f 6c 27 a1 bd
       1.8059989 -0.8263533 0.5539122 -0.07868847
0000d0 c8 c1 c2 c0 ce 9f a1 bd 0e 41 9d 3c 47 8c bc 40
       -6.086155 -0.078918085 0.01919606 5.8921237
0000e0 2d 5e 83 bf 66 c7 65 bf f6 e9 e1 bf e7 cf 3a c0
       -1.0263115 -0.8975738 -1.7649524 -2.9189394
0000f0 5b 68 bb 40 b5 bd 16 bf f1 38 40 bf 98 24 6b bf
       5.8564887 -0.5888322 -0.75086886 -0.9185271
000100 e1 48 64 c0 61 fd bf 40 d0 1f b5 3e 00 3f 9e bf
       -3.5669482 5.99968 0.35375834 -1.2362976
000110 f7 c2 28 c0 10 74 c5 bf 3a 71 fe 3e 4b b1 c5 bf
       -2.6368997 -1.5426044 0.4969576 -1.544473
000120 ca 73 47 c0 b0 c7 0e bf 47 00 b7 3e 93 3f 2a bf
       -3.1164422 -0.5577345 0.357424 -0.66503257
000130 d0 62 a8 40 b9 30 9d 40 ee a7 6a 40 95 11 90 bd
       5.262062 4.9121976 3.6664996 -0.070346035
000140 1d 57 da c0 5f 1f 96 40 86 0a c5 3e 71 e2 1f 40
       -6.823134 4.6913295 0.3848459 2.498196
000150 ce b9 94 c0 ef d8 07 c1 c9 c7 96 40 d8 fc 2e c0
       -4.647681 -8.490462 4.711888 -2.7341824
000160 b0 f3 04 bf c3 8b d1 bf 35 14 8f c0 6c 30 92 c0
       -0.5193434 -1.6370777 -4.4712167 -4.568411
000170 53 da 9c bf 4c 36 b2 c0 9d 76 96 c0 ef 6a fa 3d
       -1.2254127 -5.569128 -4.701979 0.12227427
000180 f3 f4 88 bf 08 e8 70 c0 12 3f 90 c0 23 9f 47 3f
       -1.0699753 -3.764162 -4.507699 0.779772

linearLow1.weight f4 [5, 3]
000000 93 0e 20 40 16 0f 70 3e 54 b7 3e c0 0b e8 ae 40
       2.5008895 0.23443255 -2.9799395 5.4658256
000010 68 67 a9 3e 43 44 e6 3f 54 2c 4b 3f 7e b0 f0 3f
       0.33086705 1.7989582 0.79364514 1.8803861
000020 f9 b3 85 40 74 29 b0 3f f8 49 13 c0 a6 ed 8d 40
       4.1782193 1.376265 -2.3013897 4.43526
000030 34 fc 22 3b d0 6a 02 bf 9a 19 08 3c
       0.0024869563 -0.5094423 0.008306885

linearLow1.bias f4 [5]
000000 9e 80 e0 3f c0 02 2d bf 69 e9 3b 3f 83 93 18 3f
       1.7539251 -0.6758232 0.7340303 0.59600085
000010 2d b6 05 bf
       -0.52231103

linearLow2.weight f4 [4, 5]
000000 a0 fb f2 3c b5 f6 94 be ce 82 2d be 9a d0 a6 be
       0.029661 -0.29094473 -0.1694443 -0.32581025
000010 7a 04 e0 be 28 e0 be bf 5a f9 80 c0 f4 2c 37 40
       -0.43753415 -1.4912157 -4.0304384 2.8621187
000020 0a 9f d2 3f de 14 80 be 9b 66 d7 c0 09 51 f3 c0
       1.6454785 -0.2501592 -6.731275 -7.603642
000030 a9 2f 00 bf 15 d7 56 40 19 24 93 be 6e f0 66 c0
       -0.50072724 3.3568776 -0.28738478 -3.6084247
000040 fe d9 d5 3f 90 f5 52 40 7b d6 e9 3f 2c 9f 84 3d
       1.6707151 3.296238 1.8268579 0.06475672

linearLow2.bias f4 [4]
000000 40 a8 5f bc b6 3c 51 3f 58 b2 bc 3f f1 c8 81 3f
       -0.013650954 0.8173326 1.4741926 1.0139447

linearLow3.weight f4 [4, 4]
000000 40 2a 86 3d ca dc 15 40 31 f6 23 c1 da e5 2b 40
       0.06551027 2.341601 -10.247605 2.685904
000010 ec 6f c6 be 05 65 6e 3f 29 a3 e5 bf 4d ee 71 40
       -0.38757265 0.93122894 -1.7940418 3.7801697
000020 18 10 97 be 8a 3c 44 40 24 9b 71 40 55 0d 98 3e
       -0.29504466 3.066195 3.775094 0.29697672
000030 c0 6f 62 bd 00 ae d0 bc 00 de 61 bd ca 5f e4 be
       -0.055282354 -0.025473595 -0.055143356 -0.4460433

linearLow3.bias f4 [4]
000000 63 45 25 3f 63 e6 bc 3f 76 fd 8f c0 f0 de 9e be
       0.64559 1.4757808 -4.49969 -0.31029463

linear3.weight f4 [4, 8]
000000 71 dd 54 41 01 cd 92 40 cd 5d 3a c1 44 d5 dc c1
       13.304063 4.587525 -11.647901 -27.604134
000010 89 2f 74 3f 59 02 4a 3f fa 25 87 c0 88 41 50 be
       0.9538503 0.7890983 -4.223386 -0.20337498
000020 27 44 da c1 ba ac 38 c1 ea 0c 3a bd 2a 39 db c0
       -27.283278 -11.54217 -0.045422472 -6.850728
000030 69 3b 28 40 f2 fd e2 bf d8 41 15 3f fa b9 78 3e
       2.628626 -1.7733748 0.58303595 0.24289694
000040 46 e4 8c bf d9 62 44 c0 b3 74 96 c1 88 59 77 41
       -1.1007164 -3.0685332 -18.806982 15.459358
000050 7a 84 6f c0 07 29 0b 40 95 42 2b bf 14 3f e1 3d
       -3.7424607 2.174379 -0.6689847 0.10998359
000060 55 ae c6 c0 4d 8e 24 40 00 4a 3e 41 35 a2 bb c1
       -6.208781 2.5711854 11.893066 -23.454203
000070 0c 25 7e 3e b6 bd 21 c0 f7 a4 dd 3f 1f da 63 be
       0.2481882 -2.527204 1.7315968 -0.22251175

linear3.bias f4 [4]
000000 0c 69 69 40 59 f7 33 c1 56 3a ed c0 5f 36 69 c0
       3.6470366 -11.247888 -7.413371 -3.6439435
