algo/DQN/trained_model_0501/policy_net_2100.pt (torch_old, 2348 bytes, 9 tensors)

linear1.weight f4 [4, 25]
0	0xbfccba3f	-1.5994338
1	0xc078e50a	-3.8889794
2	0xc052f320	-3.2960892
3	0xbef6ae96	-0.48180073
4	0x3dfb9a9b	0.12285348
5	0xbfbdc8f4	-1.4826951
6	0xbf86ec83	-1.0540928
7	0xc01e90b5	-2.4775822
8	0xbe2ef2f5	-0.17084868
9	0xbeae1324	-0.33998978
10	0xc02cd13e	-2.7002711
11	0xbe4de0e5	-0.20105322
12	0xbf69818a	-0.91213286
13	0xbde9c878	-0.114151895
14	0xc057289a	-3.3618531
15	0xbf1a0470	-0.6016302
16	0x400acea6	2.1688628
17	0xbf9740dd	-1.181667
18	0x3e02294f	0.1271107
19	0xc033b7ad	-2.8080857
20	0x3e416e8b	0.18889825
21	0x40e65763	7.1981673
22	0x40652f7d	3.5810235
23	0x404ff32b	3.2492168
24	0xbf026a06	-0.5094303
25	0x4001deb4	2.0292177
26	0xbf6d978b	-0.9280936
27	0xbf6aba7e	-0.91690814
28	0xbd783e5d	-0.06060635
29	0x3e1a77a4	0.15084702
30	0x4045730e	3.0851474
31	0x3d069b12	0.03286273
32	0xbeca45a3	-0.39506254
33	0xbe0573c0	-0.13032436
34	0xbfa3cca3	-1.2796825
35	0x406df5bd	3.7181237
36	0x3eae0fcc	0.33996427
37	0x3edfae22	0.4368754
38	0xbba8316d	-0.005132845
39	0xc03668f4	-2.8501558
40	0x409c08e1	4.876084
41	0x3fa8b595	1.3180414
42	0x3dc1af94	0.09457317
43	0xc0033a80	-2.0504456
44	0xbfa4bfca	-1.2871029
45	0xbd112794	-0.035438135
46	0x40f2a07a	7.5820894
47	0x3f834b97	1.0257443
48	0x3fd998a4	1.6999707
49	0xbf4ed5d8	-0.8079505
50	0x3f7b3a19	0.98135525
51	0xbf320a77	-0.6954722
52	0xc086376a	-4.1942644
53	0xbf1b40e9	-0.6064592
54	0x3e333c0a	0.17503372
55	0x40882316	4.254283
56	0xbe9c6fb6	-0.3055398
57	0xbf11a01f	-0.5688495
58	0xbef788f2	-0.48346668
59	0xc016717e	-2.350677
60	0x40b2d131	5.588036
61	0x3d97a24c	0.074040025
62	0xbfcb225a	-1.5869858
63	0xbf88f461	-1.0699579
64	0xc065be52	-3.5897412
65	0x40aeb6e4	5.4598255
66	0x3e2eff4d	0.17089577
67	0xbe8d2ecc	-0.27574766
68	0xbf922ef0	-1.1420574
69	0xbfdec7c5	-1.7404715
70	0x3f78e6c5	0.97227126
71	0xc05d4920	-3.4575882
72	0xc01e34bb	-2.4719684
73	0xbf3e8ac2	-0.7443048
74	0x3e3f7fb6	0.18701062
75	0x3e24a687	0.1607915
76	0x4084ea70	4.153618
77	0x408db24a	4.428014
78	0x407a389f	3.9097059
79	0xbe890f00	-0.26769257
80	0xc09e49f1	-4.946526
81	0x407f2077	3.9863565
82	0x3f045990	0.5169916
83	0x3fb4a1eb	1.4111913
84	0xc0292f07	-2.6434953
85	0xc0cda492	-6.426339
86	0x408f226f	4.4729533
87	0xbf73aeed	-0.9518879
88	0x3db72a38	0.089435995
89	0xbf1f7d49	-0.62300545
90	0xc0831a38	-4.0969505
91	0xc086e438	-4.2153587
92	0xbf819951	-1.0124913
93	0xc0a4614f	-5.1368785
94	0xc05b7fbf	-3.429672
95	0xc01b56b0	-2.427166
96	0xbfdfa401	-1.7471925
97	0xc04268b9	-3.0376418
98	0xc08f7a1d	-4.4836564
99	0x3f80f66e	1.0075204

linearLow1.weight f4 [5, 3]
0	0x40247a3e	2.569961
1	0x3e310354	0.17286426
2	0xc040abbd	-3.010482
3	0x40a0b6ec	5.0223293
4	0x3e35b7c9	0.1774589
5	0x3fa47a53	1.284983
6	0x3f47d0af	0.780528
7	0x3ff66844	1.9250569
8	0x4050cf97	3.2626703
9	0x3f882ab3	1.0638031
10	0xc00a5b6e	-2.1618304
11	0x407ce06b	3.9511974
12	0x3b22fc34	0.0024869563
13	0xbf026ad0	-0.5094423
14	0x3c08199a	0.008306885

linearLow1.bias f4 [5]
0	0x3fd7965b	1.684276
1	0xbeec1076	-0.4610631
2	0x3f817eec	1.0116858
3	0x3f2ecc9a	0.6828095
4	0xbf05b62d	-0.52231103

linearLow2.weight f4 [4, 5]
0	0x3cf2fba0	0.029661
1	0xbe94f6b5	-0.29094473
2	0xbe2d82ce	-0.1694443
3	0xbea6d09a	-0.32581025
4	0xbee0047a	-0.43753415
5	0xc010aaa2	-2.2604146
6	0xc059efd6	-3.4052634
7	0x402037f4	2.503415
8	0x3fb2c900	1.396759
9	0xbe8014de	-0.2501592
10	0xc0b300ce	-5.593848
11	0xc0afd4bc	-5.4947186
12	0xbf1d14f0	-0.61360073
13	0x403feac9	2.9987051
14	0xbe932419	-0.28738478
15	0xc058f09d	-3.3896859
16	0x3f8e4c73	1.111708
17	0x4033d587	2.8099077
18	0x3ff23233	1.892157
19	0x3d849f2c	0.06475672

linearLow2.bias f4 [4]
0	0xbc5fa840	-0.013650954
1	0x3f990a2b	1.1956228
2	0x3feef854	1.8669534
3	0x3f41f968	0.7577119

linearLow3.weight f4 [4, 4]
0	0x3d862a40	0.06551027
1	0x3ffc18c5	1.9695059
2	0xc12bd0a4	-10.738438
3	0x40124e7b	2.28604
4	0xbec66fec	-0.38757265
5	0x3f74a8f7	0.9557032
6	0xbfd28613	-1.6447166
7	0x40723c00	3.784912
8	0xbe971018	-0.29504466
9	0x4039153e	2.8919215
10	0x406428e1	3.564995
11	0x3e9fc58c	0.31205404
12	0xbd626fc0	-0.055282354
13	0xbcd0ae00	-0.025473595
14	0xbd61de00	-0.055143356
15	0xbee45fca	-0.4460433

linearLow3.bias f4 [4]
0	0xbee673d3	-0.45010242
1	0x3fbc9f37	1.4736089
2	0xc0723e99	-3.7850707
3	0xbe9edef0	-0.31029463

linear3.weight f4 [4, 8]
0	0x412ac090	10.672012
1	0x40955891	4.6670613
2	0xc13ddacf	-11.86592
3	0xc1a8914f	-21.070951
4	0x3f59948c	0.8499229
5	0x3f7a42a2	0.97757924
6	0xc07515f6	-3.8294654
7	0xbe504188	-0.20337498
8	0xc1aa6aa6	-21.302074
9	0xc142bcd4	-12.171101
10	0xbf03040c	-0.5117805
11	0xc086e1d4	-4.215067
12	0x40121007	2.2822282
13	0xbfac9955	-1.3484293
14	0x3f0da6d2	0.5533267
15	0x3e78b9fa	0.24289694
16	0xbef9cac1	-0.487875
17	0xc026fcae	-2.6091723
18	0xc185ff02	-16.749516
19	0x416f79e0	14.967255
20	0xc07bbb7c	-3.9333181
21	0x3ff3af95	1.9037958
22	0xbf2b426b	-0.6689822
23	0x3de13f14	0.10998359
24	0xc0c64f7b	-6.197202
25	0x400025d6	2.0023093
26	0x411be7ff	9.74414
27	0xc182128b	-16.259054
28	0x3f878c58	1.0589705
29	0xc023a184	-2.5567331
30	0x3ff37fd5	1.9023386
31	0xbe63da1f	-0.22251175

linear3.bias f4 [4]
0	0x40656a62	3.584618
1	0xc130df25	-11.054479
2	0xc0f3d3f8	-7.619625
3	0xc06f2244	-3.7364664
