algo/DQN/trained_model_0501/policy_net_2800.pt (torch_old, 2348 bytes, 9 tensors)

linear1.weight f4 [4, 25]
0	0xc0520938	-3.2818127
1	0xc084dd0e	-4.151984
2	0xc04d4f49	-3.2079642
3	0xbefeac38	-0.49740767
4	0x3e45f0fc	0.1933021
5	0xbfb4a6d6	-1.4113414
6	0xbf403f4f	-0.750966
7	0xbf5caa85	-0.8619769
8	0xbf0ad6c4	-0.54233956
9	0xbeed0f48	-0.4630072
10	0xc012aae1	-2.2916796
11	0x3eff57cf	0.4987168
12	0x3e808f20	0.25109196
13	0x3ca0d3ee	0.019632306
14	0xc059af3f	-3.4013212
15	0xbf1b6b00	-0.60710144
16	0x40003249	2.0030692
17	0x3d75c556	0.060002647
18	0x3d18e26f	0.03732532
19	0xc03a533f	-2.911331
20	0xbed3c67c	-0.4136237
21	0x4100d942	8.053041
22	0x40736b60	3.8034286
23	0x404f5168	3.2393436
24	0xbfc1b0a1	-1.5132028
25	0x40060260	2.093895
26	0xbf2a6c27	-0.6657128
27	0xbf41d1ad	-0.75710565
28	0xbe1f8e00	-0.15581512
29	0x3d6b8300	0.05749798
30	0x4078ca52	3.8873487
31	0xbedbed57	-0.42954513
32	0xbd630d3e	-0.05543255
33	0xbdba53f3	-0.09098043
34	0xbf70e535	-0.9409974
35	0x40995e03	4.792726
36	0x3eff2974	0.49836314
37	0x3cb43d58	0.022001907
38	0xbe5353d7	-0.20637451
39	0xc0259eb2	-2.587811
40	0x409e4848	4.9463234
41	0x3f7bc47d	0.9834669
42	0xbe5aa7ea	-0.21353117
43	0xbfd08040	-1.6289139
44	0xbf8d003f	-1.10157
45	0xbd725c8b	-0.059170287
46	0x40fc4005	7.882815
47	0x3f783306	0.96952856
48	0x3fdafb2b	1.71079
49	0xbf20aa08	-0.6275945
50	0x3f376515	0.71638614
51	0xbf1ce6c1	-0.612896
52	0xc0a00eaf	-5.0017924
53	0xbeef51fb	-0.46742234
54	0x3ebaba0c	0.36470068
55	0x40a29803	5.081056
56	0xbfb166b6	-1.385947
57	0xbf3d9e33	-0.7406952
58	0xbf777f96	-0.96679056
59	0xc0273212	-2.612431
60	0x40b0bfd9	5.523419
61	0xbeef41ad	-0.46729794
62	0xbf0e2f55	-0.5554097
63	0xbf9b546f	-1.2135142
64	0xc04b9309	-3.1808493
65	0x40c3a44f	6.113807
66	0x3e0c12f4	0.13679105
67	0xbea19081	-0.3155556
68	0xbfea5a47	-1.83088
69	0xbf5dc2da	-0.86625445
70	0x3f16d510	0.5891886
71	0xc0258c76	-2.586698
72	0xc0307a25	-2.757455
73	0xbeee6a2c	-0.46565378
74	0x3d62b827	0.055351403
75	0xbf16b198	-0.58864737
76	0x40998f71	4.79876
77	0x409fa73b	4.989164
78	0x408080b2	4.01571
79	0xbf1eeb8e	-0.6207818
80	0xc0bfd868	-5.995167
81	0x408dc880	4.430725
82	0x3f07e38b	0.5308158
83	0x3fbbb81e	1.4665563
84	0xc0659e83	-3.5877998
85	0xc0e8318d	-7.2560487
86	0x408f6421	4.480973
87	0xbf11e32b	-0.56987256
88	0xbdd31d8a	-0.103083685
89	0xbfd929d4	-1.696589
90	0xc083f965	-4.1241937
91	0xc080172f	-4.00283
92	0xbed3c5d7	-0.41361877
93	0xc0906c3a	-4.5132113
94	0xc05c3bae	-3.4411426
95	0xbf54d0d8	-0.8313117
96	0xbf9136fb	-1.1344904
97	0xc06a7bc9	-3.6638052
98	0xc0a7fa48	-5.249302
99	0x3f25ea34	0.6481049

linearLow1.weight f4 [5, 3]
0	0x401feaaf	2.498699
1	0x3ea98f9d	0.3311738
2	0xc0509e41	-3.259659
3	0x40a5fd74	5.187189
4	0x3e5a3a69	0.21311344
5	0x3fcaf6be	1.585655
6	0x3f555f3a	0.8334843
7	0x3fde09c2	1.7346728
8	0x40708412	3.758061
9	0x3f92c3cc	1.1466002
10	0xc01f638c	-2.4904509
11	0x4085019d	4.156447
12	0x3b22fc34	0.0024869563
13	0xbf026ad0	-0.5094423
14	0x3c08199a	0.008306885

linearLow1.bias f4 [5]
0	0x3fd851d0	1.6899967
1	0xbf1b2f2a	-0.6061884
2	0x3f64b5ed	0.89340097
3	0x3f1d6a93	0.61490744
4	0xbf05b62d	-0.52231103

linearLow2.weight f4 [4, 5]
0	0x3cf2fba0	0.029661
1	0xbe94f6b5	-0.29094473
2	0xbe2d82ce	-0.1694443
3	0xbea6d09a	-0.32581025
4	0xbee0047a	-0.43753415
5	0xbfe62729	-1.7980701
6	0xc06a48b6	-3.660688
7	0x402b06bd	2.6722863
8	0x3fb66cb7	1.4251927
9	0xbe8014de	-0.2501592
10	0xc0cbb01e	-6.3652487
11	0xc0dfef55	-6.9979653
12	0xbf14b592	-0.58089554
13	0x4044ac5a	3.0730195
14	0xbe932419	-0.28738478
15	0xc06570b7	-3.5850046
16	0x3fb3de2e	1.4052179
17	0x403abae6	2.9176574
18	0x4000ffe3	2.015618
19	0x3d849f2c	0.06475672

linearLow2.bias f4 [4]
0	0xbc5fa840	-0.013650954
1	0x3f8d4910	1.1037922
2	0x3fd6e397	1.6788205
3	0x3f74ae01	0.9557801

linearLow3.weight f4 [4, 4]
0	0x3d862a40	0.06551027
1	0x4009d812	2.153813
2	0xc12d64ad	-10.837079
3	0x401ccb1d	2.449897
4	0xbec66fec	-0.38757265
5	0x3f625f1e	0.8842639
6	0xbfdd442a	-1.7286427
7	0x40741ab8	3.8141308
8	0xbe971018	-0.29504466
9	0x403c0dcc	2.938342
10	0x406b08e9	3.6724188
11	0x3e8f0d6e	0.27939934
12	0xbd626fc0	-0.055282354
13	0xbcd0ae00	-0.025473595
14	0xbd61de00	-0.055143356
15	0xbee45fca	-0.4460433

linearLow3.bias f4 [4]
0	0x3e6b1472	0.22957018
1	0x3fc11bd8	1.5086622
2	0xc0835a32	-4.10476
3	0xbe9edef0	-0.31029463

linear3.weight f4 [4, 8]
0	0x4139a6c1	11.603211
1	0x40936380	4.605896
2	0xc13a2129	-11.633096
3	0xc1cb90ef	-25.445768
4	0x3f6b697c	0.9195783
5	0x3f5ffea1	0.8749791
6	0xc07df281	-3.9679263
7	0xbe504188	-0.20337498
8	0xc1bdec91	-23.74051
9	0xc140fa91	-12.061173
10	0x3e4fe122	0.20300725
11	0xc0a12be8	-5.0366096
12	0x4022c03b	2.5429828
13	0xbfcc0d0f	-1.5941485
14	0x3f091879	0.5355297
15	0x3e78b9fa	0.24289694
16	0xbf0a875f	-0.5411281
17	0xc02f1e4d	-2.7362244
18	0xc18f00c1	-17.875368
19	0x41819b14	16.200722
20	0xc0807423	-4.014177
21	0x3ffa3d89	1.9550029
22	0xbf40104a	-0.75024855
23	0x3de13f14	0.10998359
24	0xc0aea91f	-5.4581447
25	0x40182c3b	2.3776996
26	0x412c3df6	10.765127
27	0xc19b6ccb	-19.428122
28	0x3f298126	0.6621269
29	0xc0296ed5	-2.6473897
30	0x3ff0e59c	1.8820071
31	0xbe63da1f	-0.22251175

linear3.bias f4 [4]
0	0x405e270c	3.4711332
1	0xc133bbdb	-11.233363
2	0xc0e8b0ec	-7.271597
3	0xc0636839	-3.5532362
