algo/DQN/trained_model_0501/policy_net_2600.pt (torch_old, 2348 bytes, 9 tensors)

linear1.weight f4 [4, 25]
-2.7957075 -4.0604258 -3.0185416 -0.5188747 0.55600655 -1.0692742 -1.1450324 -1.5752264
-0.7181085 -0.50936455 -2.5417333 0.2446253 -0.22282042 0.091346964 -3.4176445 -0.4478776
2.2433844 -0.18908018 0.08182928 -2.882945 -0.2477888 7.90214 3.751147 3.109678
-1.4029264 1.4229542 -0.93095106 -0.82612365 -0.2500441 0.04533372 3.4400554 -0.55708516
-0.20605294 -0.30355468 -0.9468762 4.5954843 -0.07458504 -0.060592245 -0.06496717 -2.7741685
4.751754 0.46876195 0.07537652 -2.1836562 -1.1991315 -0.12105983 7.986352 1.0419447
1.6952201 -0.64546657 0.57586426 -0.7474579 -4.6756735 -0.7232891 0.3046643 4.8195868
-1.192042 -0.356743 -1.154195 -2.3841712 5.684025 -0.25812635 -1.35302 -1.1326588
-3.1085944 5.800431 0.29069757 -0.4626913 -1.9535335 -1.2419958 0.608666 -2.9510164
-2.5794723 -0.16699639 0.20159674 -0.54155153 4.5287256 4.6177835 3.674089 -1.2455144
-5.7688494 4.323531 0.2814783 1.3636678 -3.7348735 -7.6136518 4.252824 -0.5145137
-0.70661044 -1.5263064 -3.8896172 -4.136536 -0.6983224 -4.5790787 -4.253327 -1.3852087
-1.0431296 -2.9697645 -5.0184155 0.87307096
00000000: dfec 32c0 02ef 81c0 c92f 41c0 f9d4 04bf
00000010: 7256 0e3f fadd 88bf 6c90 92bf 05a1 c9bf
00000020: f5d5 37bf b765 02bf c2ab 22c0 0e7f 7a3e
00000030: 092b 64be 1e14 bb3d b0ba 5ac0 3650 e5be
00000040: 9c93 0f40 3c9e 41be 1c96 a73d 2c82 38c0
00000050: 59bc 7dbe 55de fc40 cb12 7040 f704 4740
00000060: 1893 b3bf 5d23 b63f cf52 6ebf d77c 53bf
00000070: c805 80be daaf 393d de29 5c40 229d 0ebf
00000080: 8bff 52be 856b 9bbe 7b66 72bf 350e 9340
00000090: 0bc0 98bd 932f 78bd 820d 85bd fa8b 31c0
000000a0: 5e0e 9840 9101 f03e 015f 9a3d 06c1 0bc0
000000b0: 247d 99bf 37ee f7bd 3290 ff40 725e 853f
000000c0: f9fc d83f 4c3d 25bf d76b 133f 6759 3fbf
000000d0: 1e9f 95c0 7929 39bf f6fc 9b3e 0e3a 9a40
000000e0: d594 98bf 05a7 b6be a9bc 93bf 4396 18c0
000000f0: 88e3 b540 2329 84be c22f adbf f7fa 90bf
00000100: 36f3 46c0 219d b940 50d6 943e e0e5 ecbe
00000110: 630d fabf b8f9 9ebf 89d1 1b3f 74dd 3cc0
00000120: 1316 25c0 1a01 2bbe 606f 4e3e 1fa3 0abf
00000130: 52eb 9040 e2c4 9340 4624 6b40 046d 9fbf
00000140: 6a9a b8c0 5e5a 8a40 ec1d 903e ab8c ae3f
00000150: 2b08 6fc0 09a3 f3c0 2217 8840 2bb7 03bf
00000160: 6ce4 34bf 025e c3bf 7def 78c0 815e 84c0
00000170: 42c5 32bf d087 92c0 411b 88c0 854e b1bf
00000180: 4585 85bf 9f10 3ec0 dc96 a0c0 9481 5f3f

linearLow1.weight f4 [5, 3]
2.5422003 0.23485495 -3.233854 5.1446295 0.20479871 1.5165789 0.8565957 1.7035886
3.6355345 1.0450181 -2.232211 4.1361966 0.0024869563 -0.5094423 0.008306885
00000000: 69b3 2240 d17d 703e 77f7 4ec0 cea0 a440
00000010: c1b6 513e 421f c23f db49 5b3f 310f da3f
00000020: 99ac 6840 27c3 853f 8cdc 0ec0 b95b 8440
00000030: 34fc 223b d06a 02bf 9a19 083c

linearLow1.bias f4 [5]
1.7094609 -0.544408 0.9456633 0.6276302 -0.52231103
00000000: 9dcf da3f 535e 0bbf fd16 723f 5fac 203f
00000010: 2db6 05bf

linearLow2.weight f4 [4, 5]
0.029661 -0.29094473 -0.1694443 -0.32581025 -0.43753415 -2.261746 -3.563336 2.6328971
1.3693472 -0.2501592 -5.8207393 -6.6420345 -0.5903576 3.0173316 -0.28738478 -3.4563634
1.3445659 2.853267 1.9735656 0.06475672
00000000: a0fb f23c b5f6 94be ce82 2dbe 9ad0 a6be
00000010: 7a04 e0be 72c0 10c0 b20d 64c0 6381 2840
00000020: c546 af3f de14 80be 7f43 bac0 8c8b d4c0
00000030: ad21 17bf f61b 4140 1924 93be 0f35 5dc0
00000040: bc1a ac3f ed9b 3640 cc9d fc3f 2c9f 843d

linearLow2.bias f4 [4]
-0.013650954 1.0298313 1.6774014 0.8779442
00000000: 40a8 5fbc 83d1 833f 17b5 d63f f3c0 603f

linearLow3.weight f4 [4, 4]
0.06551027 2.0960615 -10.804719 2.3548362 -0.38757265 0.859018 -1.6957623 3.785039
-0.29504466 2.9410667 3.5916755 0.3005834 -0.055282354 -0.025473595 -0.055143356 -0.4460433
00000000: 402a 863d df25 0640 21e0 2cc1 a3b5 1640
00000010: ec6f c6be 9be8 5b3f bd0e d9bf 143e 7240
00000020: 1810 97be 703a 3c40 03de 6540 11e6 993e
00000030: c06f 62bd 00ae d0bc 00de 61bd ca5f e4be

linearLow3.bias f4 [4]
-0.050983146 1.5094372 -4.099246 -0.31029463
00000000: b4d3 50bd 3d35 c13f 062d 83c0 f0de 9ebe

linear3.weight f4 [4, 8]
11.251238 4.6621246 -11.548332 -24.428501 0.90097576 0.8929923 -3.9252725 -0.20337498
-23.058756 -12.103544 0.27633 -5.318266 2.4678457 -1.508362 0.62683606 0.24289694
-0.6162324 -2.4951565 -17.672169 16.114286 -4.016685 1.9639143 -0.75063133 0.10998359
-5.4452677 2.4929771 10.300805 -18.379103 0.7828461 -2.5801065 1.8747259 -0.22251175
00000000: 1205 3441 2030 9540 f8c5 38c1 926d c3c1
00000010: 59a6 663f 259b 643f aa37 7bc0 8841 50be
00000020: 5578 b8c1 1ea8 41c1 207b 8d3e 3c2f aac0
00000030: 2ff1 1d40 0212 c1bf 5478 203f fab9 783e
00000040: 68c1 1dbf a5b0 1fc0 9a60 8dc1 0fea 8041
00000050: af88 80c0 8b61 fb3f 6029 40bf 143f e13d
00000060: a23f aec0 f08c 1f40 19d0 2441 6708 93c1
00000070: 9a68 483f 7720 25c0 05f7 ef3f 1fda 63be

linear3.bias f4 [4]
3.5792162 -11.028516 -7.32798 -3.6301084
00000000: e111 6540 cd74 30c1 d07e eac0 b253 68c0
