algo/DQN/trained_model_0501/policy_net_400.pt (torch_old, 2348 bytes, 9 tensors)

linear1.weight f4 [4, 25]
00000000: bf08 1bc0 85a5 f9bf e616 babf c46a 47bf
00000010: e28f 253d a3f0 ebbf be6b 96bf aad0 77bf
00000020: aa2c ecbf 0988 b7be b9e5 4dc0 d705 473f
00000030: 73c8 11be 06b3 ddbe 4fca 0bc0 e488 a0bf
00000040: ac30 3c40 5468 3bbf 4cb6 ea3e 0602 03c0
00000050: 768b 743f 296c b740 3bda 3340 5334 3440
00000060: cedb 25be 8a50 e23e d808 0ebf 122d 4fbf
00000070: 5694 a1bd 2c19 14bd dff0 1840 b46d b13f
00000080: 594c aebf f30b f3bf a90e 0bc0 cb05 8340
00000090: 5ee4 d83f 6f46 a03e 8241 e1bd 15aa 23c0
000000a0: 0f03 4b40 bbb6 ea3f 1dd0 d43e d7f9 21bf
000000b0: e649 edbf 2960 db3f b635 4040 0c99 0940
000000c0: 9e8c d33f 6cc5 1c3e 992c 2d3e b05b 18bf
000000d0: 6a53 32c0 c977 82be 8b9a 383e 4cfc 4f40
000000e0: 0ed4 94be da2e 86bc ba83 b8bf e9e2 f5bf
000000f0: 7573 8340 1b43 abbd 0f85 2ebf 64ad 29bf
00000100: d32a 00c0 5d79 8440 3707 a83e eea0 843e
00000110: 3eae af3e f66f f7bf b6b6 5e3f 0075 68c0
00000120: d0f0 d3bf 39b8 89be 4993 033e b872 16bf
00000130: 2ab6 3840 1192 5240 d85d 0040 b4f0 b63f
00000140: 0bbf 2ec0 7041 8940 8242 ff3e 1e6e 4c3f
00000150: 92f2 39c0 ac6e 87c0 7adf 6b40 0c19 64be
00000160: 2b9a 163d 62e6 08c0 6ee9 8ac0 ee74 51c0
00000170: 18ff 71bf 14d3 08c0 7a4b e3bf b9cf debf
00000180: e175 9cbf a889 d1bf 5920 37c0 3794 e03e
-2.4224088 -1.9503638 -1.4538238 -0.77897286 0.04042042 -1.8432811 -1.175163 -0.9680277
-1.845113 -0.35845974 -3.2171462 0.77743286 -0.14236622 -0.43300647 -2.184223 -1.2541776
2.9404707 -0.7320607 0.45842206 -2.0469985 0.955253 5.731953 2.8101947 2.8156936
-0.1619713 0.4420207 -0.55482244 -0.80928147 -0.07889621 -0.03615682 2.3897016 1.3861604
-1.361705 -1.8988022 -2.1727698 4.094457 1.6944692 0.31303737 -0.10998823 -2.557256
3.1720617 1.8337015 0.41565028 -0.6327185 -1.8538177 1.7138721 3.0032783 2.1499662
1.6527288 0.15309685 0.16911544 -0.59514904 -2.7863412 -0.25482014 0.18027703 3.249774
-0.29068035 -0.016379762 -1.44152 -1.9209872 4.107844 -0.08362409 -0.6817178 -0.662802
-2.0026138 4.139815 0.32818004 0.2590403 0.34312624 -1.9331043 0.86997545 -3.632141
-1.6557865 -0.26898363 0.12849154 -0.58768797 2.8861184 3.2901652 2.0057278 1.4292207
-2.7304103 4.289238 0.4985543 0.79855525 -2.9054303 -4.2322598 3.685515 -0.2227518
0.03676812 -2.1390615 -4.340995 -3.2727618 -0.9452987 -2.1378832 -1.7757409 -1.7407142
-1.2223474 -1.6370134 -2.8613493 0.4386308

linearLow1.weight f4 [5, 3]
00000000: 8acd 2940 e0b6 f43e 8a77 11c0 176f 3640
00000010: eefa 923d 85cc 603e 328b c73e aacd f03f
00000020: 74e1 9e3f c61c bb3f ad95 dbbf 0189 d93f
00000030: 34fc 223b d06a 02bf 9a19 083c
2.65317 0.47795773 -2.272921 2.8505304 0.07176767 0.21953018 0.38973385 1.8812764
1.2412553 1.4618156 -1.7155052 1.6994935 0.0024869563 -0.5094423 0.008306885

linearLow1.bias f4 [5]
00000000: 248c 413f ebea 24be 934c 8d3f 6a8b 473f
00000010: 2db6 05bf
0.7560446 -0.16105239 1.1038994 0.77947104 -0.52231103

linearLow2.weight f4 [4, 5]
00000000: a0fb f23c b5f6 94be ce82 2dbe 9ad0 a6be
00000010: 7a04 e0be 9c87 16c0 fdad e1bf d3ea e63f
00000020: d825 233f de14 80be 3a91 64c0 8d19 3bc0
00000030: 5ffd 12bf 6d87 0d40 1924 93be 2cb8 2ac0
00000040: d0f4 dc3e cfc0 1b40 cc20 833f 2c9f 843d
0.029661 -0.29094473 -0.1694443 -0.32581025 -0.43753415 -2.352027 -1.7631222 1.8040413
0.6372962 -0.2501592 -3.571364 -2.9234345 -0.57417864 2.2113907 -0.28738478 -2.667491
0.43155527 2.433643 1.0244384 0.06475672

linearLow2.bias f4 [4]
00000000: 40a8 5fbc fbf5 d43f 53f6 db3f 7033 663d
-0.013650954 1.6637567 1.7184547 0.0562014

linearLow3.weight f4 [4, 4]
00000000: 402a 863d cdb1 343f 870b c4c0 9672 0a40
00000010: ec6f c6be e8e1 963f 2f36 b4bf b67e 3a40
00000020: 1810 97be c2a4 1c40 37fb 3540 d95a ab3d
00000030: c06f 62bd 00ae d0bc 00de 61bd ca5f e4be
0.06551027 0.705838 -6.126407 2.1632438 -0.38757265 1.1787691 -1.4079036 2.9139838
-0.29504466 2.447556 2.843458 0.08366937 -0.055282354 -0.025473595 -0.055143356 -0.4460433

linearLow3.bias f4 [4]
00000000: 2d65 36c0 aa15 ad3f 8f8c 2cc0 f0de 9ebe
-2.8499253 1.3522236 -2.696079 -0.31029463

linear3.weight f4 [4, 8]
00000000: 8602 e940 0ec8 193f 83f1 a0c0 af7b 31c1
00000010: 7193 d83d 66fd 3f3f 9848 2ec0 8841 50be
00000020: 93e3 17c1 c25c 3fc1 5f5d 98c0 e129 b8c0
00000030: 66cd e73f b309 88be 9a77 ff3d fab9 783e
00000040: 986f 95c0 cb61 ddbf c452 15c1 f30e 1741
00000050: 1cf5 5fc0 0a0d a73f c56e 8fbe 143f e13d
00000060: f63c d5c0 8d9c af3f 39e9 0941 0c99 15c1
00000070: 0713 513f a431 02c0 6b7d 0a40 1fda 63be
7.281558 0.60070884 -5.0294814 -11.092696 0.10574997 0.7499603 -2.7231808 -0.20337498
-9.49306 -11.960146 -4.761398 -5.755112 1.8109558 -0.265699 0.12473984 0.24289694
-4.6698723 -1.7295469 -9.332706 9.44115 -3.4993353 1.3050854 -0.28014198 0.10998359
-6.6636915 1.371965 8.619439 -9.349865 0.8166966 -2.0342798 2.163905 -0.22251175

linear3.bias f4 [4]
00000000: b066 6640 812d e2c0 4e16 89c0 48fc 0dc0
3.6000175 -7.0680547 -4.2839727 -2.218523
