algo/DQN/trained_model_0501/policy_net_3100.pt (torch_old, 2348 bytes, 9 tensors)

linear1.weight f4 [4, 25]
-2.8992796 -3.9563851 -3.6408823 -0.32674208 0.23903407 -1.203048 -0.92185116 -0.5950048
-0.07304781 -0.48613083 -2.552987 0.5557201 0.19040729 -0.06837311 -3.2861242 -1.0237943
1.7150954 0.27363184 -0.052469485 -2.9368796 -0.22891958 8.234359 3.7342048 3.4901679
-1.5511351 2.2918167 -0.37490204 -0.45394832 -0.14015664 -0.18080238 4.125843 -0.1607908
-0.2316835 -0.25422296 -1.002102 5.2112174 0.010405696 -0.013840166 -0.057831272 -2.5683064
4.7734685 0.58192575 -0.08907964 -1.5179014 -1.0186309 0.034466542 8.420354 0.5302456
1.6766773 -0.70163345 0.543475 -0.04310005 -5.623597 -0.04330389 0.057721015 5.0656157
-1.2024626 -0.70526105 -1.0556929 -2.414538 5.9991584 -0.083619654 -0.73393226 -0.52061987
-3.5423713 6.1581707 -0.022049777 -0.8068358 -2.2537181 -1.3028005 0.38774776 -2.06491
-3.0970182 -0.60688335 0.109051414 -0.79966545 5.247305 4.4325547 3.8465295 -0.48738045
-6.300761 4.5066195 0.53790444 2.0714216 -4.305044 -7.9702206 4.506202 -1.1094394
-0.55368805 -1.9820744 -4.3758826 -4.4449563 -0.47563186 -4.7674074 -4.052607 -0.4148014
-1.168443 -4.020213 -5.0555935 0.7964937
00000000: cc8d 39c0 6a35 7dc0 3704 69c0 bd4a a7be
00000010: 59c5 743e 7afd 99bf 70fe 6bbf 3c52 18bf
00000020: 179a 95bd 24e6 f8be 2464 23c0 ac43 0e3f
00000030: 21fa 423e 3307 8cbd dc4f 52c0 b10b 83bf
00000040: 3f88 db3f 7919 8c3e 3eea 56bd d6f5 3bc0
00000050: e569 6abe efbf 0341 36fd 6e40 e95e 5f40
00000060: 988b c6bf 20ad 1240 29f3 bfbe ea6b e8be
00000070: 3985 0fbe 4224 39be e806 8440 58a6 24be
00000080: 703e 6dbe 8329 82be e144 80bf 4bc2 a640
00000090: a77c 2a3c ddc1 62bc 7ce0 6cbd 225f 24c0
000000a0: 41c0 9840 16f9 143f 636f b6bd 984a c2bf
000000b0: 7f62 82bf ca2c 0d3d c5b9 0641 2dbe 073f
000000c0: 5d9d d63f 409e 33bf 2d21 0b3f ae89 30bd
000000d0: 82f4 b3c0 6b5f 31bd df6c 6c3d 8619 a240
000000e0: 4bea 99bf fd8b 34bf f220 87bf ca87 1ac0
000000f0: 1bf9 bf40 c840 abbd fce2 3bbf 5847 05bf
00000100: 36b6 62c0 bc0f c540 bca1 b4bc ca8c 4ebf
00000110: eb3c 10c0 2bc2 a6bf e086 c63e 7c27 04c0
00000120: 8c35 46c0 b55c 1bbf 5956 df3d e0b6 4cbf
00000130: ece9 a740 7dd7 8d40 8a2d 7640 ee89 f9be
00000140: d69f c9c0 3a36 9040 1bb4 093f 2c92 0440
00000150: ecc2 89c0 0c0c ffc0 cf32 9040 1c02 8ebf
00000160: 80be 0dbf 9db4 fdbf 3b07 8cc0 153d 8ec0
00000170: 0586 f3be 9a8e 98c0 f5ae 81c0 d960 d4be
00000180: 8a8f 95bf 96a5 80c0 6cc7 a1c0 03e7 4b3f

linearLow1.weight f4 [5, 3]
2.335657 0.34844685 -3.2860904 5.6336603 0.29948875 1.6257533 0.79662234 1.6097237
3.9738567 1.272806 -2.3085437 4.3405313 0.0024869563 -0.5094423 0.008306885
00000000: 677b 1540 a067 b23e 4e4f 52c0 f246 b440
00000010: 9756 993e af18 d03f 71ef 4b3f 6d0b ce3f
00000020: ab53 7e40 4feb a23f 2ebf 13c0 a2e5 8a40
00000030: 34fc 223b d06a 02bf 9a19 083c

linearLow1.bias f4 [5]
1.7007797 -0.55138004 0.8445718 0.61817783 -0.52231103
00000000: 26b3 d93f 3e27 0dbf dc35 583f e740 1e3f
00000010: 2db6 05bf

linearLow2.weight f4 [4, 5]
0.029661 -0.29094473 -0.1694443 -0.32581025 -0.43753415 -1.9607915 -3.75776 2.7559648
1.6062781 -0.2501592 -6.3359957 -7.242268 -0.5454794 3.179875 -0.28738478 -3.6117387
1.6438026 3.0183368 1.9348427 0.06475672
00000000: a0fb f23c b5f6 94be ce82 2dbe 9ad0 a6be
00000010: 7a04 e0be 37fb fabf 247f 70c0 ba61 3040
00000020: 859a cd3f de14 80be 7ac0 cac0 a9c0 e7c0
00000030: 8aa4 0bbf 1283 4b40 1924 93be ba26 67c0
00000040: 2068 d23f 6e2c 4140 eda8 f73f 2c9f 843d

linearLow2.bias f4 [4]
-0.013650954 0.99794215 1.4301203 0.9906026
00000000: 40a8 5fbc 2379 7f3f 2f0e b73f 2298 7d3f

linearLow3.weight f4 [4, 4]
0.06551027 2.2935352 -10.306547 2.4693146 -0.38757265 0.8355593 -1.6878933 3.826223
-0.29504466 3.0128908 3.6170108 0.3189462 -0.055282354 -0.025473595 -0.055143356 -0.4460433
00000000: 402a 863d 48c9 1240 9ee7 24c1 4009 1e40
00000010: ec6f c6be 37e7 553f e30c d8bf d6e0 7440
00000020: 1810 97be 34d3 4040 1b7d 6740 eb4c a33e
00000030: c06f 62bd 00ae d0bc 00de 61bd ca5f e4be

linearLow3.bias f4 [4]
0.40561673 1.503357 -4.3283353 -0.31029463
00000000: ffac cf3e 016e c03f b981 8ac0 f0de 9ebe

linear3.weight f4 [4, 8]
11.974897 4.845996 -12.026529 -25.99755 0.91953003 0.8219009 -4.093696 -0.20337498
-25.040213 -11.756937 0.22274256 -5.89499 2.584153 -1.6616286 0.64943165 0.24289694
-0.053301316 -3.1392817 -17.289606 16.29609 -3.9351337 1.9715723 -0.7734415 0.10998359
-5.271388 2.519334 11.450113 -21.243517 0.7717468 -2.6095173 1.7661896 -0.22251175
00000000: 2e99 3f41 6612 9b40 aa6c 40c1 fbfa cfc1
00000010: 5266 6b3f 1968 523f 8fff 82c0 8841 50be
00000020: 5b52 c8c1 6a1c 3cc1 a016 643e c2a3 bcc0
00000030: c362 2540 3fb0 d4bf 2741 263f fab9 783e
00000040: 7b52 5abd fee9 48c0 1d51 8ac1 645e 8241
00000050: 3bd9 7bc0 7b5c fc3f 4300 46bf 143f e13d
00000060: 36af a8c0 c53c 2140 aa33 3741 b9f2 a9c1
00000070: 3391 453f 5502 27c0 8012 e23f 1fda 63be

linear3.bias f4 [4]
3.5898528 -11.284116 -7.5545387 -3.7153103
00000000: 26c0 6540 bd8b 34c1 c8be f1c0 a5c7 6dc0
