algo/DQN/trained_model_0501/policy_net_3800.pt (torch_old, 2348 bytes, 9 tensors)

linear1.weight f4 [4, 25]
00000000: d354 60c0 e0bc a9c0 ab41 8bc0 3de2 f1be
00000010: 6282 e33e 5816 a7bf ac94 2bbf 43f0 e7be
00000020: 3801 b7be e8b7 2cbf b9ba 26c0 1bbc 0c3e
00000030: e83c 173e 6484 acbe 41b4 4cc0 3529 2abf
00000040: 8d31 e03f a5de 833e 5ec9 983e 8b17 3ec0
00000050: 4b4f 413d 9e2e 1341 6236 7d40 0ed6 8440
00000060: 5c94 0ac0 4d2a 1640 ad97 f8bd 925a 93be
00000070: 4634 3ebe 7c59 00be 6406 9d40 8195 243e
00000080: 17d8 1dbe a252 70be 4c3b 9ebf 9310 9640
00000090: c16b 323e 9f60 22bd 780e b0be 2586 f7bf
000000a0: 5943 9540 cb0f be3f 9ef7 ecbe bb79 7bbf
000000b0: 44c1 44bf 5007 23be 1c53 1241 cf56 a53f
000000c0: 050f ec3f ba01 80bf 6438 f03e 521d 92be
000000d0: 43ed cdc0 5c89 b6bd 6fdd a03e 467b cd40
000000e0: c03a 2ebf 6738 67bf 9f8c e9bf e4ca 2ac0
000000f0: 621a bc40 c62b 49bf 4a7d 30bf 2431 2fbf
00000100: c552 66c0 845e bf40 01af ac3e 03df f6bf
00000110: 78c0 32c0 f1b3 d7bf bc14 eb3e 79d2 c2bf
00000120: 2c6b 42c0 4e78 a4be 5af8 df3e f2fb 56bf
00000130: 8d8d a840 f21d 9d40 34a2 6b40 7bc1 5ebf
00000140: 1a90 dcc0 aa02 9e40 cd10 853e 2a13 1140
00000150: 70bd a9c0 13eb 09c1 dd1a 9240 b972 2cc0
00000160: 0b55 63be 2d67 01c0 21a1 a4c0 13d5 92c0
00000170: 096a 91bf 99d0 bac0 44a9 a7c0 c943 df3e
00000180: 5a72 5fbf 263b 7bc0 d041 92c0 9263 473f
-3.5051773 -5.304306 -4.351766 -0.4724292 0.44435412 -1.3053694 -0.6702373 -0.45300493
-0.35743117 -0.6746812 -2.6051466 0.13743632 0.14769328 -0.33694756 -3.1985018 -0.66469127
1.7515122 0.25755802 0.2984113 -2.970187 0.04719476 9.198881 3.9564443 4.1511297
-2.1653051 2.3463318 -0.12138305 -0.28780037 -0.18574628 -0.12534136 4.90703 0.16072656
-0.15414463 -0.23469022 -1.2361846 4.689523 0.17423917 -0.039642926 -0.3438604 -1.9337813
4.664471 1.484857 -0.46282667 -0.9823262 -0.768574 -0.15920758 9.14529 1.2917117
1.8442084 -1.0000527 0.46918023 -0.28537995 -6.4352126 -0.08912918 0.3141894 6.421298
-0.68058395 -0.9032044 -1.8246039 -2.6686335 5.8782206 -0.7858242 -0.68941176 -0.6843436
-3.5988019 5.9802876 0.33727267 -1.9286808 -2.7929974 -1.6851789 0.45914257 -1.5220481
-3.0377913 -0.32123035 0.43744165 -0.8397819 5.267279 4.9099054 3.681775 -0.8701398
-6.8925905 4.937825 0.2598938 2.2667947 -5.3043747 -8.619891 4.565779 -2.694502
-0.2220041 -2.0219223 -5.144669 -4.58851 -1.1360484 -5.8379636 -5.2394123 0.43606403
-0.8728386 -3.9254851 -4.5705338 0.7788631

linearLow1.weight f4 [5, 3]
00000000: 2002 2d40 4cdf 673e b143 3dc0 09e5 ae40
00000010: 4628 863e c546 e83f bfae 543f 1644 f93f
00000020: 7682 8940 c0b2 b43f a25e 08c0 d03e 8f40
00000030: 34fc 223b d06a 02bf 9a19 083c
2.7032547 0.22643775 -2.9572566 5.4654584 0.262026 1.8146597 0.8307914 1.9473903
4.2971754 1.411705 -2.130776 4.4764175 0.0024869563 -0.5094423 0.008306885

linearLow1.bias f4 [5]
00000000: 596a da3f d812 29bf c1f4 3f3f e1ef 1d3f
00000010: 2db6 05bf
1.7063705 -0.6604438 0.7498284 0.6169415 -0.52231103

linearLow2.weight f4 [4, 5]
00000000: a0fb f23c b5f6 94be ce82 2dbe 9ad0 a6be
00000010: 7a04 e0be 5e9c c4bf be02 81c0 3225 3d40
00000020: 31fc c33f de14 80be f684 dcc0 17d8 f3c0
00000030: cd30 11bf f297 5540 1924 93be f971 66c0
00000040: 7c9b cc3f 2877 5640 3e8f ea3f 2c9f 843d
0.029661 -0.29094473 -0.1694443 -0.32581025 -0.43753415 -1.536022 -4.0315847 2.9553952
1.5311338 -0.2501592 -6.8912306 -7.620128 -0.5671509 3.337399 -0.28738478 -3.6007063
1.598495 3.3510227 1.8324964 0.06475672

linearLow2.bias f4 [4]
00000000: 40a8 5fbc 826e 2f3f af1d c23f f3ee 823f
-0.013650954 0.68527997 1.5165309 1.0229172

linearLow3.weight f4 [4, 4]
00000000: 402a 863d 7ea5 1e40 47de 21c1 4dba 2c40
00000010: ec6f c6be 4705 5f3f f1f9 e9bf 444d 7240
00000020: 1810 97be b9f6 4440 6839 7140 59f4 953e
00000030: c06f 62bd 00ae d0bc 00de 61bd ca5f e4be
0.06551027 2.4788508 -10.116767 2.698871 -0.38757265 0.8711743 -1.8279401 3.785966
-0.29504466 3.0775588 3.7691288 0.29287985 -0.055282354 -0.025473595 -0.055143356 -0.4460433

linearLow3.bias f4 [4]
00000000: 1aef 133f 7c88 c43f 1fce 93c0 f0de 9ebe
0.57786715 1.5354152 -4.6189113 -0.31029463

linear3.weight f4 [4, 8]
00000000: 2890 5b41 0172 9640 642e 42c1 e954 e2c1
00000010: cb16 793f 65d1 473f c3c8 85c0 8841 50be
00000020: 1adc e2c1 2991 35c1 3ee6 2bbe b9e1 d5c0
00000030: 6676 2740 c022 eebf 5aa7 173f fab9 783e
00000040: 91bf a2bf dcbf 4ec0 e538 98c1 cd87 7b41
00000050: 5a6d 64c0 6e49 0c40 db58 1fbf 143f e13d
00000060: d1fc cfc0 ca88 1440 6ea2 4341 92ce c5c1
00000070: 546c 8f3e 2167 20c0 627d dc3f 1fda 63be
13.722694 4.7014165 -12.136326 -28.29146 0.97300404 0.78053886 -4.180757 -0.20337498
-28.357471 -11.3479395 -0.16787049 -6.683804 2.6166015 -1.8604355 0.59239733 0.24289694
-1.2714711 -3.2304602 -19.02778 15.7206545 -3.5691743 2.1919818 -0.6224496 0.10998359
-6.4996114 2.320849 12.227156 -24.725864 0.28012335 -2.5062945 1.7225764 -0.22251175

linear3.bias f4 [4]
00000000: 9506 6940 7543 33c1 a661 e7c0 4287 70c0
3.6410267 -11.203969 -7.23067 -3.7582555
