algo/DQN/trained_model_0501/policy_net_4100.pt (torch_old, 2348 bytes, 9 tensors)

linear1.weight f4 [4, 25]
000000 99 2e 3a c0 91 34 b5 c0 1e 87 95 c0 6d 78 42 bf
       -2.909094 -5.662667 -4.672744 -0.75965005
000010 ff 2e 36 3f 7b de 03 c0 7b 1c 68 bf ac cf 8a be
       0.7116546 -2.0604541 -0.9066846 -0.27111566
000020 8b d1 80 bf 30 b7 43 bf ef 34 2c c0 78 98 66 3e
       -1.0063947 -0.76451397 -2.6907308 0.225191
000030 bc 42 d1 be b9 36 4c be 78 0a 4a c0 92 7a 26 bf
       -0.40871227 -0.1994275 -3.156889 -0.6503078
000040 b1 d9 05 40 1f f1 49 3e 88 f4 70 3e dc f0 35 c0
       2.0914118 0.19720887 0.23530781 -2.842826
000050 aa 7e 9d be e4 d3 12 41 9d c6 86 40 c8 1d 94 40
       -0.307607 9.176731 4.211745 4.6286354
000060 26 64 27 c0 ed e8 24 40 90 31 dd bd de 65 50 be
       -2.6154876 2.5767167 -0.10800469 -0.20351359
000070 79 c1 4c bd 56 e5 e9 bc 2e 68 9c 40 ba e1 39 bd
       -0.049989197 -0.028551739 4.8877172 -0.045381285
000080 85 8c 42 bc d0 0f 5c be 91 c4 93 bf 80 20 9b 40
       -0.011874323 -0.21490407 -1.1544362 4.8477173
000090 6a d3 a4 3d d9 99 87 3d 42 5e 11 be ed 13 0b c0
       0.080481365 0.06621141 -0.14196113 -2.1730912
0000a0 e7 54 a1 40 58 5e 85 3f 42 6b 18 be d7 b6 8a bf
       5.041614 1.0419416 -0.14884666 -1.0837048
0000b0 be 9b 63 bf f6 80 0b 3e da 4d 0f 41 1c c1 a7 3f
       -0.8890952 0.13623413 8.956507 1.3105807
0000c0 65 6d f6 3f c7 9b 90 bf c0 6f 26 3f 45 32 de be
       1.9252135 -1.129754 0.65014267 -0.43397728
0000d0 d4 3c d0 c0 5c aa 8c bd fb 27 8e 3e 59 1d c9 40
       -6.5074253 -0.06868431 0.27764878 6.2848325
0000e0 5c 8d db be bb 6e c1 be 47 37 db bf f6 94 23 c0
       -0.42881286 -0.37779793 -1.7126244 -2.5559669
0000f0 45 f0 c4 40 a9 25 0e bf 77 f6 17 bf b9 4f b2 be
       6.15433 -0.55526215 -0.5936045 -0.3482645
000100 ed 03 70 c0 e4 c3 c6 40 bd 6a a8 3e e4 5b 9c bf
       -3.7502396 6.2114124 0.32893935 -1.2215543
000110 2c c2 1b c0 6f 99 d7 bf c2 6f 4d 3f 21 98 80 bf
       -2.4337263 -1.6843699 0.80248654 -1.0046426
000120 a3 1d 56 c0 08 48 f0 be 35 40 7d bd 8d 67 2e bf
       -3.345559 -0.46929955 -0.06182881 -0.68126756
000130 93 3a bd 40 76 e0 9d 40 31 34 81 40 00 ae a1 bf
       5.9134 4.93365 4.037621 -1.2631226
000140 5c a0 cb c0 27 ba 98 40 17 60 10 3f 7f 41 04 40
       -6.363325 4.7727237 0.5639662 2.0664976
000150 73 a0 ae c0 7d de 11 c1 c2 aa 98 40 6e 6b 3b c0
       -5.457086 -9.116818 4.7708445 -2.928432
000160 7c 3a 23 bf 0b c9 e4 bf 12 6b aa c0 f4 f3 99 c0
       -0.63761115 -1.7873853 -5.32557 -4.8110294
000170 09 3d 85 bf 9a 42 ca c0 6e 9c a7 c0 92 38 3b 3f
       -1.0409251 -6.32063 -5.2378454 0.73133194
000180 c5 b2 0d bf 51 91 82 c0 08 4c 94 c0 53 41 a0 3f
       -0.55350906 -4.080239 -4.634281 1.2519935

linearLow1.weight f4 [5, 3]
000000 74 87 27 40 b2 b3 54 3e 3f 15 35 c0 4c d8 b2 40
       2.6176424 0.20771673 -2.8294218 5.5889034
000010 7a 10 b3 3e d4 e4 f2 3f 20 7b 49 3f f0 4d e5 3f
       0.34973508 1.8976083 0.787035 1.791441
000020 d5 2d 8f 40 e9 89 c2 3f c3 f7 02 c0 9d ac 91 40
       4.4743447 1.5198337 -2.0463722 4.552321
000030 34 fc 22 3b d0 6a 02 bf 9a 19 08 3c
       0.0024869563 -0.5094423 0.008306885

linearLow1.bias f4 [5]
000000 37 d2 cf 3f 95 9a 26 bf 83 ac 44 3f 0a 87 34 3f
       1.6236027 -0.65079623 0.7682573 0.70518553
000010 2d b6 05 bf
       -0.52231103

linearLow2.weight f4 [4, 5]
000000 a0 fb f2 3c b5 f6 94 be ce 82 2d be 9a d0 a6 be
       0.029661 -0.29094473 -0.1694443 -0.32581025
000010 7a 04 e0 be 24 ab a0 bf 4f 93 85 c0 39 e0 3f 40
       -0.43753415 -1.2552228 -4.174232 2.9980605
000020 6e af c7 3f de 14 80 be d9 35 e0 c0 3f a1 fc c0
       1.5600412 -0.2501592 -7.006573 -7.8946834
000030 24 6e 02 bf ab e4 5d 40 19 24 93 be 02 cb 5b c0
       -0.5094931 3.4670818 -0.28738478 -3.4342656
000040 4d 53 e1 3f 97 18 5b 40 ca 49 e3 3f 2c 9f 84 3d
       1.7603546 3.4233758 1.7756894 0.06475672

linearLow2.bias f4 [4]
000000 40 a8 5f bc 02 47 28 3f bb bc d5 3f a5 ea 84 3f
       -0.013650954 0.6573335 1.6698221 1.0384108

linearLow3.weight f4 [4, 4]
000000 40 2a 86 3d f7 38 1f 40 f9 19 23 c1 2c 93 32 40
       0.06551027 2.4878519 -10.193841 2.7902327
000010 ec 6f c6 be 48 52 56 3f a9 dc f2 bf 8e b5 71 40
       -0.38757265 0.837193 -1.897359 3.7767062
000020 18 10 97 be f2 b9 48 40 34 a4 76 40 0d 70 93 3e
       -0.29504466 3.1363492 3.8537722 0.28796425
000030 c0 6f 62 bd 00 ae d0 bc 00 de 61 bd ca 5f e4 be
       -0.055282354 -0.025473595 -0.055143356 -0.4460433

linearLow3.bias f4 [4]
000000 e4 54 3e 3f 00 99 c1 3f 6b 4a 95 c0 f0 de 9e be
       0.7434828 1.5124817 -4.665334 -0.31029463

linear3.weight f4 [4, 8]
000000 05 4c 62 41 1d 93 92 40 88 17 42 c1 95 72 ea c1
       14.143559 4.580458 -12.130745 -29.305948
000010 35 80 7b 3f b2 13 44 3f 47 dc 87 c0 88 41 50 be
       0.98242503 0.7659255 -4.2456393 -0.20337498
000020 ed de ec c1 ac de 32 c1 07 a5 57 3e 3e 62 cc c0
       -29.60885 -11.179363 0.21059047 -6.3869925
000030 02 fc 2a 40 d0 14 fa bf c1 b5 fe 3e fa b9 78 3e
       2.6716313 -1.9537601 0.49748042 0.24289694
000040 31 ec e1 bf b2 a4 49 c0 78 97 9e c1 ad 6a 7e 41
       -1.7650205 -3.1506772 -19.82396 15.901044
000050 f9 ab 60 c0 05 10 0e 40 48 2f 2a bf 14 3f e1 3d
       -3.5104964 2.2197278 -0.66478395 0.10998359
000060 67 80 cf c0 0a ac 0e 40 cc 08 46 41 ee a0 d1 c1
       -6.484424 2.2292504 12.377148 -26.203579
000070 62 01 8b 3e 03 57 24 c0 bf c7 d6 3f 1f da 63 be
       0.27149493 -2.5678108 1.6779708 -0.22251175

linear3.bias f4 [4]
000000 fa 1b 61 40 ca a1 32 c1 fb 5c e7 c0 c3 d8 7c c0
       3.5173326 -11.164499 -7.2301 -3.95073
