algo/DQN/trained_model_0501/policy_net_4400.pt (torch_old, 2348 bytes, 9 tensors)

linear1.weight f4 [4, 25]
-2.8733919 -5.7346125 -4.749066 -0.9181431 0.61561733 -1.8934567 -0.9755237 -0.1662723
-0.6571367 -1.4294283 -2.4862928 0.2727801 0.083425626 -0.34917322 -3.121585 -0.7067822
1.9737452 0.06921068 -0.43707526 -2.6952305 -0.08864097 9.747078 4.0665584 4.743983
-2.5357347 1.8946432 -0.22511037 -0.29807785 -0.18657006 0.1952242 4.755905 -0.07199841
0.14750288 -0.16446176 -0.9258941 5.11187 0.2265877 -0.009994588 -0.33418822 -2.1735022
5.2415466 1.004175 0.08056562 -1.0746646 -0.68599486 -0.18994428 9.41165 1.6473254
1.9042782 -1.2854092 0.6964701 -0.34218723 -6.4056134 -0.2942738 0.20803142 6.4431243
-0.7239388 -0.45495903 -2.3185875 -2.5420523 6.1186776 -0.6692046 -0.6820181 -0.32941595
-4.044289 6.2774906 0.1637609 -0.609235 -1.7171896 -1.4893197 0.6167703 -1.0833344
-3.6455405 -0.5797608 0.17749976 -0.5678017 5.8789086 5.122306 4.2243743 -1.2657092
-6.2729087 4.7053814 0.26182923 1.9695458 -5.3057714 -9.40263 4.497896 -4.091637
-0.7941728 -1.5833527 -5.408217 -5.1041546 -0.9462113 -6.587877 -5.2532988 0.73148084
-0.9340016 -4.128477 -5.3225384 1.173559
00000000: a7e5 37c0 f281 b7c0 59f8 97c0 6d0b 6bbf
00000010: 1999 1d3f ca5c f2bf ecbb 79bf 4943 2abe
00000020: 1c3a 28bf 82f7 b6bf 6c1f 1fc0 d5a9 8b3e
00000030: 0edb aa3d d5c6 b2be 0cc8 47c0 aeef 34bf
00000040: afa3 fc3f 54be 8d3d 54c8 dfbe a87e 2cc0
00000050: 6689 b5bd 08f4 1b41 3f21 8240 b5ce 9740
00000060: 7a49 22c0 ab83 f23f 5583 66be a99d 98be
00000070: 390c 3fbe dae8 473e 6030 9840 e773 93bd
00000080: ff0a 173e aa68 28be 6507 6dbf 7094 a340
00000090: 9b06 683e 57c0 23bc b81a abbe a91a 0bc0
000000a0: c0ba a740 ce88 803f 96ff a43d 9c8e 89bf
000000b0: 5c9d 2fbf c180 42be 1e96 1641 8fdb d23f
000000c0: 63bf f33f 4a88 a4bf dd4b 323f 2a33 afbe
000000d0: c9fa ccc0 0eab 96be 3006 553e 132e ce40
000000e0: 0e54 39bf 64f0 e8be bd63 14c0 fcb0 22c0
000000f0: 35cc c340 fe50 2bbf bd98 2ebf 35a9 a8be
00000100: d16a 81c0 34e1 c840 f0b0 273e d3f6 1bbf
00000110: decc dbbf 07a2 bebf a9e4 1d3f b4aa 8abf
00000120: 8950 69c0 346b 14bf 7fc2 353e 745b 11bf
00000130: 0520 bc40 eee9 a340 132e 8740 c202 a2bf
00000140: abbb c8c0 7c92 9640 7b0e 863e 141a fc3f
00000150: e1c8 a9c0 2c71 16c1 c4ee 8f40 b1ee 82c0
00000160: e94e 4bbf 4dab cabf 1d10 adc0 3c55 a3c0
00000170: e73a 72bf e3cf d2c0 061b a8c0 5442 3b3f
00000180: bb1a 6fbf 7c1c 84c0 3c52 aac0 2e37 963f

linearLow1.weight f4 [5, 3]
2.5025387 0.17650847 -2.728372 5.831142 0.33609092 1.9386157 0.82866424 1.8538046
4.5323877 1.5871478 -1.8615798 4.61489 0.0024869563 -0.5094423 0.008306885
00000000: 9829 2040 a3be 343e a69d 2ec0 b798 ba40
00000010: 1c14 ac3e 8f24 f83f 5723 543f 7849 ed3f
00000020: 5209 9140 a927 cb3f 3f48 eebf 2ead 9340
00000030: 34fc 223b d06a 02bf 9a19 083c

linearLow1.bias f4 [5]
1.5596186 -0.68541896 0.78980625 0.7789194 -0.52231103
00000000: 95a1 c73f 9e77 2fbf be30 4a3f 4367 473f
00000010: 2db6 05bf

linearLow2.weight f4 [4, 5]
0.029661 -0.29094473 -0.1694443 -0.32581025 -0.43753415 -1.1836882 -4.1908445 3.0159743
1.599142 -0.2501592 -7.1324506 -8.30695 -0.5363796 3.5247755 -0.28738478 -3.1356356
1.8398384 3.4998353 1.7277291 0.06475672
00000000: a0fb f23c b5f6 94be ce82 2dbe 9ad0 a6be
00000010: 7a04 e0be 1883 97bf 661b 86c0 b905 4140
00000020: afb0 cc3f de14 80be 093d e4c0 44e9 04c1
00000030: 2c50 09bf ec95 6140 1924 93be 41ae 48c0
00000040: d37f eb3f 4dfd 5f40 3a26 dd3f 2c9f 843d

linearLow2.bias f4 [4]
-0.013650954 0.6622726 1.708937 1.0627486
00000000: 40a8 5fbc b28a 293f 73be da3f 2508 883f

linearLow3.weight f4 [4, 4]
0.06551027 2.5405123 -10.122013 2.7909164 -0.38757265 0.797963 -1.8653603 3.7860513
-0.29504466 3.1441808 3.8659444 0.27799156 -0.055282354 -0.025473595 -0.055143356 -0.4460433
00000000: 402a 863d c197 2240 c4f3 21c1 609e 3240
00000010: ec6f c6be 4e47 4c3f 20c4 eebf aa4e 7240
00000020: 1810 97be 423a 4940 a26b 7740 e954 8e3e
00000030: c06f 62bd 00ae d0bc 00de 61bd ca5f e4be

linearLow3.bias f4 [4]
0.901232 1.5063664 -4.7441363 -0.31029463
00000000: 24b7 663f 9dd0 c03f f7cf 97c0 f0de 9ebe

linear3.weight f4 [4, 8]
14.610737 4.6626534 -11.876754 -29.950096 0.97904676 0.7424141 -4.245305 -0.20337498
-30.685925 -10.819023 0.09624461 -7.162285 2.7293139 -2.022916 0.49229923 0.24289694
-1.105121 -3.445188 -20.430134 15.621281 -3.5356584 2.2272062 -0.59765905 0.10998359
-6.7444754 2.29173 12.700616 -26.865093 0.11129228 -2.603864 1.6934651 -0.22251175
00000000: 94c5 6941 7534 9540 2f07 3ec1 cc99 efc1
00000010: cfa2 7a3f da0e 3e3f 8ad9 87c0 8841 50be
00000020: c67c f5c1 b81a 2dc1 e51b c53d 7031 e5c0
00000030: 14ad 2e40 7577 01c0 a50e fc3e fab9 783e
00000040: 9b74 8dbf f67d 5cc0 ea70 a3c1 c4f0 7941
00000050: 3a48 62c0 8c8a 0e40 2f00 19bf 143f e13d
00000060: bed2 d7c0 b4ab 1240 b935 4b41 b6eb d6c1
00000070: 35ed e33d b5a5 26c0 77c3 d83f 1fda 63be

linear3.bias f4 [4]
3.5508966 -11.264462 -7.148458 -3.8438237
00000000: e441 6340 3d3b 34c1 2bc0 e4c0 3501 76c0
