algo/DQN/trained_model_0501/policy_net_4500.pt (torch_old, 2348 bytes, 9 tensors)

linear1.weight f4 [4, 25]
000000 66 02 3a c0 ed a5 b9 c0 2c b9 9c c0 e4 94 54 bf
       -2.9063964 -5.8015046 -4.897604 -0.8303969
000010 f5 9a 09 3f f2 9e ee bf 4c a9 89 bf 90 f1 df 3c
       0.5375207 -1.8642256 -1.075479 0.027336866
000020 72 9c 19 bf 84 4b bb bf 4d 26 1d c0 70 fd df 3d
       -0.6000434 -1.463242 -2.4554627 0.10937011
000030 52 27 c1 3d b5 fb f7 be b3 90 47 c0 2e b0 5a bf
       0.09431328 -0.48434225 -3.1182067 -0.8542508
000040 d3 c5 f4 3f 4d a3 59 3e 7a 97 2e bf 88 3c 2a c0
       1.9122871 0.212537 -0.68199885 -2.6599445
000050 8b 97 c8 bd e0 a7 1c 41 0c d4 85 40 d1 1e 95 40
       -0.097945295 9.790985 4.1821346 4.660012
000060 22 81 29 c0 ba e1 08 40 42 ac 57 be fa 54 29 be
       -2.6485066 2.1387773 -0.21061805 -0.16536322
000070 29 d2 5c be 0b 14 09 3d 64 07 95 40 54 87 a1 bd
       -0.21564545 0.03346638 4.657152 -0.0788714
000080 af 9b 00 be a2 df a6 be 1d 9a 7c bf d0 e8 ab 40
       -0.12559389 -0.32592493 -0.9867266 5.3721695
000090 a0 dd c6 3e 6b fb b7 bd a6 14 e6 bc 53 cb 00 c0
       0.3884096 -0.08983501 -0.028086018 -2.01241
0000a0 9a 3f a9 40 36 8d 8d 3f 18 fd b4 be 52 90 db bf
       5.289014 1.1058719 -0.35349345 -1.7153418
0000b0 f6 e3 2f bf ae 00 ce 3d f1 4f 16 41 da d9 d4 3f
       -0.68707216 0.100587234 9.394517 1.6628983
0000c0 9c 2b e0 3f 13 e9 a7 bf f2 67 3a 3f 7c 4f 81 be
       1.7513309 -1.3118004 0.7281486 -0.25255954
0000d0 c5 ad cd c0 4b e2 78 be 91 6e 7e 3e 49 8b c2 40
       -6.427462 -0.24305074 0.24846865 6.0795026
0000e0 81 65 fd be fb ba a9 be c8 7f 03 c0 45 a5 2f c0
       -0.49491504 -0.33150467 -2.0546741 -2.7444623
0000f0 71 76 c8 40 0e 02 44 bf fc d4 5e bf ce 53 8d be
       6.264458 -0.76565635 -0.8704374 -0.27603
000100 a5 ae 82 c0 48 76 d2 40 9d 79 9f 3e 5d aa 12 bf
       -4.083819 6.5769386 0.3114747 -0.57291204
000110 05 9d cf bf c5 ac cf bf 40 aa 30 3f 21 27 54 bf
       -1.6219794 -1.62246 0.6900978 -0.82872206
000120 22 c3 6f c0 44 40 d9 be 59 f0 b5 3e 7b 42 52 bf
       -3.746285 -0.42431843 0.35534933 -0.8213269
000130 38 9a b8 40 df 81 9d 40 b6 6e 86 40 b2 cf a9 bf
       5.7688255 4.9221034 4.2010145 -1.3266509
000140 cf 3b c9 c0 0e c6 99 40 fe 9c bc 3e 65 02 ed 3f
       -6.288551 4.8054266 0.36838526 1.8516356
000150 6a a0 9f c0 f3 16 15 c1 3f db 8d 40 2c 4e 81 c0
       -4.988332 -9.318103 4.4330134 -4.0407925
000160 f0 ea 9e bf 93 8b da bf de 94 ab c0 6d 05 a3 c0
       -1.2415447 -1.7073845 -5.3619223 -5.0944123
000170 5d c2 af bf 19 03 d5 c0 e5 8c b2 c0 2a 49 39 3f
       -1.373119 -6.656628 -5.579699 0.72377264
000180 3b d7 51 bf 6c 76 85 c0 fc b9 ab c0 97 9e 91 3f
       -0.8196904 -4.170706 -5.366453 1.1376523

linearLow1.weight f4 [5, 3]
000000 65 bf 29 40 d1 e1 cb 3d 06 64 2f c0 9c d7 b8 40
       2.6523068 0.099551804 -2.74048 5.7763195
000010 42 04 c2 3e 8b 2a fc 3f 84 bd 5c 3f 10 8e ea 3f
       0.37893873 1.9700483 0.8622668 1.8324604
000020 6c f1 91 40 69 0f d4 3f 2f ec f2 bf 25 83 94 40
       4.5607204 1.6567203 -1.8978328 4.641009
000030 34 fc 22 3b d0 6a 02 bf 9a 19 08 3c
       0.0024869563 -0.5094423 0.008306885

linearLow1.bias f4 [5]
000000 97 ab bd 3f fe 45 2d bf 5b 93 44 3f 39 9d 4b 3f
       1.481799 -0.67684925 0.76787347 0.7953678
000010 2d b6 05 bf
       -0.52231103

linearLow2.weight f4 [4, 5]
000000 a0 fb f2 3c b5 f6 94 be ce 82 2d be 9a d0 a6 be
       0.029661 -0.29094473 -0.1694443 -0.32581025
000010 7a 04 e0 be 3e 0e 6f bf a4 6b 88 c0 b1 49 41 40
       -0.43753415 -0.93381107 -4.2631397 3.0201228
000020 3b 52 d9 3f de 14 80 be c2 b2 ea c0 61 38 06 c1
       1.697822 -0.2501592 -7.334321 -8.388764
000030 91 e4 0a bf f7 c9 64 40 19 24 93 be 23 49 3a c0
       -0.54255015 3.574827 -0.28738478 -2.910714
000040 ce 56 dd 3f ce 31 61 40 17 77 e0 3f 2c 9f 84 3d
       1.7292116 3.5186648 1.7536343 0.06475672

linearLow2.bias f4 [4]
000000 40 a8 5f bc cf 1e 28 3f ab c1 db 3f 2f c8 8e 3f
       -0.013650954 0.6567201 1.7168478 1.1154841

linearLow3.weight f4 [4, 4]
000000 40 2a 86 3d 05 fb 23 40 61 cd 22 c1 45 cd 34 40
       0.06551027 2.562196 -10.175141 2.8250287
000010 ec 6f c6 be 04 eb 4d 3f 9f fc ed bf 35 86 72 40
       -0.38757265 0.8043673 -1.8592719 3.7894413
000020 18 10 97 be 98 3c 4b 40 8c 09 7c 40 89 db 8c 3e
       -0.29504466 3.1755733 3.9380827 0.27511242
000030 c0 6f 62 bd 00 ae d0 bc 00 de 61 bd ca 5f e4 be
       -0.055282354 -0.025473595 -0.055143356 -0.4460433

linearLow3.bias f4 [4]
000000 0e a9 7b 3f 00 4c c4 3f 2e 5e 99 c0 f0 de 9e be
       0.9830483 1.5335693 -4.7927465 -0.31029463

linear3.weight f4 [4, 8]
000000 4c 25 6a 41 99 2d 8d 40 4a 44 3f c1 a8 b3 f1 c1
       14.634106 4.411816 -11.954172 -30.212723
000010 f8 3b 7f 3f e4 75 3f 3f d5 fe 89 c0 88 41 50 be
       0.9970088 0.7478926 -4.3123574 -0.20337498
000020 a0 3b f8 c1 44 4f 2d c1 4a e6 70 3e 76 eb d8 c0
       -31.029114 -10.831852 0.23525348 -6.778743
000030 df bf 2d 40 27 48 04 c0 9a 68 fe 3e fa b9 78 3e
       2.714836 -2.0669038 0.4968918 0.24289694
000040 90 4d b5 bf 23 52 5b c0 47 06 a6 c1 de ce 78 41
       -1.4164295 -3.4268882 -20.753065 15.550505
000050 93 5f 5e c0 c4 d2 0d 40 c1 ba 1c bf 14 3f e1 3d
       -3.4745834 2.215989 -0.61222464 0.10998359
000060 5e 60 df c0 8d 96 13 40 8f 80 4c 41 f6 4b db c1
       -6.9805136 2.306064 12.781386 -27.41209
000070 b2 bb 9b 3d 30 c2 26 c0 10 70 d5 3f 1f da 63 be
       0.076041594 -2.6056023 1.6674824 -0.22251175

linear3.bias f4 [4]
000000 d5 f5 60 40 2d c4 32 c1 79 8d e4 c0 7c 3a 7b c0
       3.5150044 -11.1728945 -7.1422696 -3.9254446
