algo/DQN/trained_model_0501/policy_net_2200.pt (torch_old, 2348 bytes, 9 tensors)

linear1.weight f4 [4, 25]
00000000: 791f e4bf c78f 7dc0 bc67 46c0 3c27 bcbe
00000010: f01c bf3e c6f8 c0bf d6e5 9bbf bae3 0dc0
00000020: 9d9d cabe 2741 c4be 0b5c 38c0 36b3 28be
00000030: 50a1 44bf 3f4a 00be be44 52c0 df07 45bf
00000040: 1029 1840 7761 9dbf f805 093d efa8 2fc0
00000050: 99be fc3d 6469 e540 9cea 7040 eb58 5940
00000060: 3609 2bbf 4f21 0940 535e 28bf 67f1 62bf
00000070: 3c91 01be e68d 713e 1bbe 4440 88c8 b83d
00000080: a919 5dbf 4126 2cbe c858 a0bf 9fe2 7c40
00000090: 309d 953d 9a89 e73d 2df3 5e3d 1a13 2dc0
000000a0: 208a 9a40 776c 933f a888 a83c 7b72 0ac0
000000b0: 3309 a1bf f7d3 c0bc 602a f840 ed12 813f
000000c0: 22c3 d13f d636 1bbf 6748 663f 4925 4bbf
000000d0: 498a 89c0 02d8 33bf 4993 2f3d 9502 8d40
000000e0: 8775 8cbe 5260 0abf 5d60 2dbf 1935 febf
000000f0: 1850 ba40 ffa8 94be 318f a9bf 2ce1 83bf
00000100: e88d 55c0 2abc aa40 4e25 de3c fe81 7abf
00000110: 8f51 c2bf 818e b3bf 1cc9 593f 4b74 5ac0
00000120: 4f15 1ec0 cece 2bbf cfb6 db3e 85dd c7bd
00000130: 3c1c 9040 79e8 8e40 647a 7d40 ddd6 01be
00000140: a04c 9cc0 bf5b 8640 30a1 0d3f 2b19 b93f
00000150: 7ecb 2fc0 423f dfc0 4af0 8740 ea35 80bf
00000160: 3dac 0c3d 2da9 bfbe 261d 85c0 be65 77c0
00000170: a893 3bbf de45 95c0 d21e 4dc0 4f27 06c0
00000180: 21f6 aebf 4515 7fc0 35a5 90c0 612e 763f
-1.7822105 -3.9619005 -3.1000814 -0.36748683 0.37326765 -1.507592 -1.2179515 -2.2170243
-0.39573374 -0.38330957 -2.8806179 -0.16474614 -0.76808643 -0.12528323 -3.2854457 -0.76965135
2.3775063 -1.2295369 0.033452958 -2.744686 0.12341041 7.169115 3.7643194 3.3960521
-0.6681093 2.142658 -0.6576893 -0.886496 -0.12653059 0.23589286 3.074103 0.09022623
-0.8636728 -0.16811468 -1.2527094 3.9513319 0.07305372 0.11305542 0.05443113 -2.7042909
4.829361 1.1517476 0.020572975 -2.1632373 -1.2580932 -0.023538573 7.7551727 1.0083901
1.6387675 -0.6063055 0.8995423 -0.7935377 -4.2981305 -0.70251477 0.04286507 4.406565
-0.27433416 -0.54053223 -0.67725164 -1.9859954 5.822277 -0.29035184 -1.3246824 -1.0303092
-3.3367863 5.3354692 0.027117398 -0.978546 -1.518114 -1.4027864 0.85072494 -3.413348
-2.4700506 -0.67112434 0.4291291 -0.09759048 4.5034466 4.465878 3.9605951 -0.1267962
-4.8843536 4.1986995 0.5532408 1.4460806 -2.7467952 -6.976472 4.248082 -1.0016453
0.034343947 -0.37433758 -4.159808 -3.8655849 -0.7327218 -4.6647787 -3.2050061 -2.0961492
-1.3668863 -3.9856732 -4.520167 0.9616452

linearLow1.weight f4 [5, 3]
00000000: db6c 1f40 9426 833e aed8 47c0 5b92 9e40
00000010: b17a 393e df14 a73f acf9 4b3f b94a fa3f
00000020: 07da 5740 c438 893f 91b2 09c0 71ea 8040
00000030: 34fc 223b d06a 02bf 9a19 083c
2.491019 0.2561537 -3.1226 4.9553657 0.1811321 1.3053244 0.79677844 1.9554054
3.3726823 1.0720448 -2.1515238 4.0286183 0.0024869563 -0.5094423 0.008306885

linearLow1.bias f4 [5]
00000000: b6f0 d43f 420f f2be f4cd 763f eaa9 2a3f
00000010: 2db6 05bf
1.6635959 -0.47277266 0.9640801 0.6666552 -0.52231103

linearLow2.weight f4 [4, 5]
00000000: a0fb f23c b5f6 94be ce82 2dbe 9ad0 a6be
00000010: 7a04 e0be 3390 08c0 18a4 53c0 97c6 2440
00000020: 2693 ab3f de14 80be 3986 b0c0 e602 b7c0
00000030: db15 15bf 1ad9 3e40 1924 93be 876e 5dc0
00000040: 138a 973f 4849 3540 d6e2 fa3f 2c9f 843d
0.029661 -0.29094473 -0.1694443 -0.32581025 -0.43753415 -2.1338012 -3.3068905 2.574621
1.3404281 -0.2501592 -5.5163846 -5.719104 -0.58236474 2.9820008 -0.28738478 -3.459871
1.1839012 2.8325977 1.9600475 0.06475672

linearLow2.bias f4 [4]
00000000: 40a8 5fbc c123 953f 5d9c ec3f 33c1 3d3f
-0.013650954 1.1651536 1.8485218 0.74122924

linearLow3.weight f4 [4, 4]
00000000: 402a 863d 9709 f43f f05d 2ac1 4425 1840
00000010: ec6f c6be 73ba 7b3f 3307 d0bf 8a65 7140
00000020: 1810 97be cb70 3740 d060 6340 4580 a03e
00000030: c06f 62bd 00ae d0bc 00de 61bd ca5f e4be
0.06551027 1.9065427 -10.647934 2.3772745 -0.38757265 0.98331374 -1.6252197 3.7718225
-0.29504466 2.8662593 3.552784 0.31347862 -0.055282354 -0.025473595 -0.055143356 -0.4460433

linearLow3.bias f4 [4]
00000000: 350e afbe 0071 b73f b27d 75c0 f0de 9ebe
-0.34190527 1.433136 -3.8357968 -0.31029463

linear3.weight f4 [4, 8]
00000000: 9566 2c41 a98c 9040 4183 3dc1 7645 aec1
00000010: 4ad5 693f 3afb 743f bac5 76c0 8841 50be
00000020: 4cb5 aec1 53d5 46c1 729b c9be 8ec6 8fc0
00000030: 77e3 1240 2a50 abbf 951e 0f3f fab9 783e
00000040: a618 e5be 132b 21c0 4945 84c1 574f 7541
00000050: 1bae 81c0 5169 f53f 360d 33bf 143f e13d
00000060: bda3 bbc0 29a5 0a40 6260 1a41 df13 84c1
00000070: 03ee 8c3f 17a9 23c0 f0cc f03f 1fda 63be
10.775044 4.5171704 -11.844544 -21.783916 0.9134108 0.9569584 -3.8558183 -0.20337498
-21.838524 -12.427081 -0.39376408 -4.4929876 2.2951334 -1.3383839 0.5590604 0.24289694
-0.44745368 -2.518254 -16.53383 15.33187 -4.052503 1.9172765 -0.69942033 0.10998359
-5.8637376 2.1663306 9.648531 -16.509703 1.1010135 -2.5571954 1.8812542 -0.22251175

linear3.bias f4 [4]
00000000: 9acf 5f40 e5bf 2fc1 d8e2 f6c0 6788 71c0
3.497046 -10.984349 -7.715191 -3.7739503
