algo/DQN/trained_model_0501/policy_net_200.pt (torch_old, 2348 bytes, 9 tensors)

linear1.weight f4 [4, 25]
0	0xbfa8f810	-1.3200703
1	0xbfe56723	-1.79221
2	0xbf2db17f	-0.6784896
3	0xbf23b529	-0.63948303
4	0xbdf2d04c	-0.11856136
5	0xc03533bd	-2.8312829
6	0xbfacae4f	-1.3490695
7	0xbfd1c571	-1.6388379
8	0xbed2a7a3	-0.41143522
9	0xbf7d0d35	-0.9884828
10	0xc05173a8	-3.272684
11	0xbf683bf5	-0.9071649
12	0x3e937517	0.2880027
13	0x3f32830e	0.69731224
14	0xc00062db	-2.0060337
15	0xbfd9309e	-1.6967962
16	0x401d05fc	2.4534903
17	0xbf256595	-0.64608127
18	0x3e150e6d	0.14556284
19	0xbff850cf	-1.9399661
20	0x3fb1aa09	1.3880016
21	0x40a92d21	5.286759
22	0x4007d12a	2.1221414
23	0x4041496c	3.0201063
24	0x3da88306	0.08228116
25	0x3e3f0ffe	0.18658444
26	0x3e8f94fe	0.2804336
27	0xbcdc29e2	-0.02687544
28	0x3d3e4e9c	0.046461686
29	0xbe86473a	-0.26226217
30	0x400c1005	2.1884778
31	0x3fc89ff4	1.5673814
32	0xbd920438	-0.07129711
33	0xbf868b5b	-1.0511278
34	0xbfd6358a	-1.6735089
35	0x407fea45	3.9986737
36	0xbd8d69d3	-0.0690495
37	0xbe83a10d	-0.2570881
38	0xbc36157a	-0.011113519
39	0xc0078611	-2.1175578
40	0x402fef66	2.7489867
41	0x3fde8497	1.7384213
42	0x3e489c6d	0.19590922
43	0xbc4bb6a6	-0.0124336835
44	0xbfe606b8	-1.79708
45	0x3fc64737	1.5490483
46	0x400ab17b	2.1670825
47	0x4001452d	2.0198472
48	0x3fc951ea	1.5728123
49	0x3ea4c2f6	0.32179993
50	0x3ed201f9	0.4101713
51	0xbf6d0d85	-0.92598754
52	0xc023e796	-2.56101
53	0xbf06755d	-0.5252283
54	0xbe299dc7	-0.16564094
55	0x403aa03e	2.9160304
56	0xbd346b63	-0.044047724
57	0x3eb8579c	0.3600434
58	0xbfb08291	-1.3789846
59	0xbfd738c2	-1.6814196
60	0x407e430c	3.9728422
61	0xbf08d262	-0.5344602
62	0xbe8bef3a	-0.27330953
63	0xbe48bd43	-0.19603448
64	0xbfb7b5c2	-1.4352343
65	0x405c5601	3.4427493
66	0xbd522e34	-0.051313594
67	0x3ebd00cf	0.3691468
68	0xbf059513	-0.52180594
69	0xbfd63500	-1.6734924
70	0x3f505392	0.8137752
71	0xc0350114	-2.8281908
72	0xbff5aa33	-1.9192566
73	0xbecca765	-0.39971462
74	0x3e2c74d6	0.16841444
75	0xbeb7ccd2	-0.35898453
76	0x402ccdba	2.7000566
77	0x402662e4	2.5997858
78	0x3fdc659d	1.721851
79	0x3f91f063	1.1401485
80	0xc024f9d7	-2.577749
81	0x4033aba0	2.8073502
82	0x3f1bbde4	0.60836625
83	0x3f82bb93	1.0213493
84	0xc01ce531	-2.4514887
85	0xc02e0a35	-2.719373
86	0x405dcc08	3.465578
87	0xbf67b2b4	-0.90507054
88	0x3cacbd3d	0.02108633
89	0xc0061855	-2.095235
90	0xc0692b22	-3.6432576
91	0xbfbef3ee	-1.4918191
92	0xbf90bc22	-1.1307414
93	0xbfcf19bd	-1.617973
94	0xbfafbb99	-1.3729125
95	0xbfb2bb4b	-1.3963407
96	0xbf8de1d6	-1.1084545
97	0xbf9a1838	-1.2038641
98	0xbfe10e31	-1.7582456
99	0x3f4f1284	0.8088763

linearLow1.weight f4 [5, 3]
0	0x40080840	2.1255035
1	0x3f2b3235	0.66873485
2	0xc00ee3c3	-2.2326515
3	0x400576d8	2.0853786
4	0xbe66176c	-0.22469872
5	0xbdc0cb37	-0.0941376
6	0x3e89b256	0.26893872
7	0x3fdf11c0	1.7427292
8	0x3f76d3bb	0.96416825
9	0x3f9d5911	1.2292806
10	0xc00b571b	-2.1771915
11	0x3f8c7df9	1.0975944
12	0x3b22fc34	0.0024869563
13	0xbf026ad0	-0.5094423
14	0x3c08199a	0.008306885

linearLow1.bias f4 [5]
0	0x3f1bea1e	0.6090411
1	0xbeb22101	-0.34790805
2	0x3f8d62c8	1.1045771
3	0x3f13dc0f	0.5775766
4	0xbf05b62d	-0.52231103

linearLow2.weight f4 [4, 5]
0	0x3cf2fba0	0.029661
1	0xbe94f6b5	-0.29094473
2	0xbe2d82ce	-0.1694443
3	0xbea6d09a	-0.32581025
4	0xbee0047a	-0.43753415
5	0xc0077939	-2.1167738
6	0xbf85d523	-1.0455669
7	0x3fb97ffc	1.4492183
8	0x3f3811ee	0.7190236
9	0xbe8014de	-0.2501592
10	0xc05d02c9	-3.453295
11	0xc0141ee6	-2.314386
12	0xbf1e5544	-0.61848855
13	0x3fe79299	1.8091613
14	0xbe932419	-0.28738478
15	0xc015c688	-2.3402424
16	0x3e9a98e6	0.30194777
17	0x4018f685	2.3900464
18	0x3f68d62b	0.90951794
19	0x3d849f2c	0.06475672

linearLow2.bias f4 [4]
0	0xbc5fa840	-0.013650954
1	0x3fe90868	1.820569
2	0x3fe4c984	1.7873998
3	0xbdd9ece2	-0.10640885

linearLow3.weight f4 [4, 4]
0	0x3d862a40	0.06551027
1	0x3eae62c1	0.34059718
2	0xc0a34b55	-5.102946
3	0x4007484c	2.1137877
4	0xbec66fec	-0.38757265
5	0x3f94626b	1.1592535
6	0xbfab9192	-1.34038
7	0x4029db87	2.654024
8	0xbe971018	-0.29504466
9	0x400b2f03	2.1747444
10	0x4031eb9c	2.7800055
11	0xbacd569c	-0.001566607
12	0xbd626fc0	-0.055282354
13	0xbcd0ae00	-0.025473595
14	0xbd61de00	-0.055143356
15	0xbee45fca	-0.4460433

linearLow3.bias f4 [4]
0	0xc029f129	-2.6553442
1	0x3f50ca21	0.81558424
2	0xc005935b	-2.0871189
3	0xbe9edef0	-0.31029463

linear3.weight f4 [4, 8]
0	0x40d5601f	6.6679835
1	0x3e9a7cf7	0.30173466
2	0xc081c76d	-4.055594
3	0xc0d5a10b	-6.6759086
4	0xbe4b6ae0	-0.19864988
5	0x3eb94af0	0.36189985
6	0xc00e7aa3	-2.2262352
7	0xbe504188	-0.20337498
8	0xc0cff782	-6.4989634
9	0xc12211b3	-10.129321
10	0xc053890b	-3.3052394
11	0xc0b7f57f	-5.748718
12	0x3fb1a523	1.3878521
13	0x3e9bb154	0.30408728
14	0xbf464970	-0.77455807
15	0x3e78b9fa	0.24289694
16	0xc098868b	-4.7664237
17	0xbfa7cf77	-1.3110188
18	0xc101f8a5	-8.123204
19	0x40c1d1df	6.056869
20	0xc03d68eb	-2.9595287
21	0x3f97fbbd	1.18737
22	0xbe6a9fa7	-0.22912465
23	0x3de13f14	0.10998359
24	0xc0b15c56	-5.5425215
25	0x3f8d797b	1.1052698
26	0x40e4b059	7.146527
27	0xc09fe63a	-4.996854
28	0x3f9243f3	1.1426986
29	0xbff23a54	-1.892405
30	0x3fed1fbc	1.852531
31	0xbe63da1f	-0.22251175

linear3.bias f4 [4]
0	0x4053d7d0	3.3100471
1	0xc052fbaf	-3.2966115
2	0xc01198b6	-2.2749457
3	0xbea1ee02	-0.31626898
